p_pkl/DDPG_Actor_target.pkl (torch, 7071 bytes, 4 tensors)

weight f4 [30, 36]
0.004962829 -0.18779087 -0.053108525 -0.103025936 -0.06400238 0.058598984 0.0678581 -0.06263948
0.07670834 0.12573464 0.072053574 -0.28329557 -0.017728807 -0.2080196 0.023824578 -0.13669528
0.056023356 -0.10685285 -0.024324449 0.06948441 0.031807166 -0.051813435 0.058050413 -0.11315673
-0.12799112 -0.0833633 0.110829785 0.019824822 -0.13473408 0.23617661 0.12834616 0.1283193
0.04904698 0.029307414 -0.019321002 0.20918433 -0.200664 0.10867115 0.025898814 0.17000005
-0.047750056 0.2010384 0.18875726 -0.13141409 -0.011476125 -0.11089736 -0.24831413 -0.023407646
-0.1655653 0.010176163 0.114047565 0.080045395 0.017509604 -0.03395839 0.051475715 0.050628703
-0.02029398 0.015857529 -0.10028813 0.18526196 -0.068030916 -0.0054163546 0.00061646337 -0.038476612
-0.016145349 -0.12955199 -0.08131431 -0.04620018 0.09964273 -0.24428485 0.20754123 -0.2007799
0.04202831 -0.14516741 0.083464526 0.024682269 0.13858072 0.09265744 -0.015942045 -0.070909575
-0.07716262 -0.013405335 0.072395034 0.07626598 -0.015456842 0.103483155 -0.12744826 0.090518504
0.15668784 0.055309214 0.03491869 -0.004928229 0.21943863 -0.07708942 0.016280187 -0.072978936
-0.10607272 -0.04020805 1.9917534e-05 -0.09638818 -0.060530197 -0.10517174 0.07150946 0.07472066
-0.023071833 0.009877148 -0.069152914 -0.085206375 0.089493744 0.07381854 -0.02671637 0.032851554
-0.03418555 0.19788511 -0.08714361 0.14198862 0.052073427 0.18092214 0.009767077 -0.040242802
0.02781033 -0.123678975 0.017945258 0.056373086 0.23446353 -0.05874892 0.0006322716 0.0032284856
-0.048663408 -0.057879087 -0.00029949745 0.09251576 0.025886808 0.029806677 -0.10547624 0.012184226
0.050434884 -0.045400377 0.018320981 -0.09601302 -0.12630501 -0.16932347 0.05085802 -0.08171786
-0.041678704 0.12034513 0.005918508 -0.10654985 -0.043905947 0.08908265 -0.02009378 0.07546888
0.05781911 -0.0815792 0.031517472 -0.048076294 0.011177156 0.06332966 0.07217562 0.07106204
-0.15034758 0.08389854 -0.026578614 -0.0490002 0.045264777 0.017027615 -0.030968035 -0.056293733
-0.13624601 0.12616666 0.04380447 0.1135826 -0.031560257 -0.101607144 -0.014774347 -0.09035459
-0.024329772 -0.06550612 0.1166183 -0.048159815 0.14818268 -0.030836929 -0.1482887 0.046980035
-0.055581268 0.12066902 0.11822943 0.06526672 0.124293685 -0.11209388 -0.02958459 -0.021573214
0.053758092 0.0466888 -0.015262504 -0.101896845 -0.053974546 -0.038620457 0.03221486 -0.02302686
0.0071705314 0.004731548 0.10861897 0.12084909 0.050304946 0.13549125 -0.21672003 -0.035405703
0.067510456 0.10245075 -0.20939587 0.0845611 -0.041980617 0.046185315 -0.090853736 0.089311086
0.16485336 -0.063098036 -0.12846278 -0.036620148 0.0141028315 -0.15912774 -0.162164 -0.014954905
-0.10587116 0.0023078665 -0.08143861 -0.08894712 -0.016445456 0.09611081 0.09962686 -0.14862178
-0.055083014 0.24776755 0.016093867 -0.1407388 -0.093826614 -0.07957992 -0.17654315 -0.03820068
-0.01019852 0.0010650278 -0.035793766 0.024710817 0.20185724 -0.000937516 0.029099667 -0.058144458
-0.16265775 -0.10545571 -0.073228456 -0.023623371 -0.09725913 -0.17196698 0.065735355 0.044686515
00000000: 3a9f a23b 404c 40be 5388 59bd 43ff d2bd
00000010: ae13 83bd 7d05 703d 30f9 8a3d 2149 80bd
00000020: 4319 9d3d 95c0 003e d390 933d 1e0c 91be
00000030: 013c 91bc 1703 55be c32b c33c d9f9 0bbe
00000040: bf78 653d abd5 dabd 1144 c7bc d84d 8e3d
00000050: 3b48 023d 533a 54bd 45c6 6d3d b7be e7bd
00000060: 1b10 03be 61ba aabd bafa e23d aa67 a23c
00000070: bbf7 09be 48d8 713e 2d6d 033e 2266 033e
00000080: 7ce5 483d 1a16 f03c 1447 9ebc 6b34 563e
00000090: dd7a 4dbe fb8e de3d c029 d43c 7e14 2e3e
000000a0: 9095 43bd 03dd 4d3e 9549 413e 6a91 06be
000000b0: 5b06 3cbc 281e e3bd 0f46 7ebe 64c1 bfbc
000000c0: f389 29be ecb9 263c c591 e93d d7ee a33d
000000d0: 4d70 8f3c f417 0bbd 33d8 523d 0b60 4f3d
000000e0: 903f a6bc a6e7 813c dd63 cdbd 50b5 3d3e
000000f0: cb53 8bbd ad7b b1bb 289a 213a a799 1dbd
00000100: 4043 84bc 47a9 04be 1e88 a6bd 663c 3dbd
00000110: 7d11 cc3d cf25 7abe b085 543e 3f99 4dbe
00000120: e125 2c3d c4a6 14be 73ef aa3d 7832 ca3c
00000130: 1be8 0d3e 2fc3 bd3d e498 82bc 0a39 91bd
00000140: 7007 9ebd 0da2 5bbc d943 943d 5731 9c3d
00000150: b23e 7dbc faee d33d cc81 02be c461 b93d
00000160: c772 203e ea8b 623d e606 0f3d fb7c a1bb
00000170: 85b4 603e 0fe1 9dbd 075e 853c fb75 95bd
00000180: a73c d9bd 32b1 24bd 9414 a737 2b67 c5bd
00000190: 83ee 77bd 4864 d7bd 8d73 923d 2507 993d
000001a0: 2401 bdbc c3d3 213c 0ba0 8dbd ae80 aebd
000001b0: 7f48 b73d 2d2e 973d 4adc dabc 5a8f 063d
000001c0: 2606 0cbd 65a2 4a3e 5978 b2bd 7765 113e
000001d0: f24a 553d a743 393e 1706 203c a3d5 24bd
000001e0: 7dd2 e33c 674b fdbd ef01 933c 77e7 663d
000001f0: 3517 703e b5a2 70bd 07bf 253a 0095 533b
00000200: 4853 47bd 9f12 6dbd de05 9db9 e778 bd3d
00000210: 9210 d43c 222d f43c ed03 d8bd 59a0 473c
00000220: cf94 4e3d bff5 39bd e215 963c 79a2 c4bd
00000230: 1a56 01be 2263 2dbe 8050 503d b25b a7bd
00000240: 4ab7 2abd 8277 f63d 0bf0 c13b cf36 dabd
00000250: b9d6 33bd f770 b63d b69b a4bc 6e8f 9a3d
00000260: bbd3 6c3d ff12 a7bd 7718 013d a6eb 44bd
00000270: 6420 373c fbb2 813d d0d0 933d fa88 913d
00000280: b7f4 19be ffd2 ab3d 65bb d9bc 6fb4 48bd
00000290: 8f67 393d 7f7d 8b3c adb0 fdbc 4294 66bd
000002a0: 1384 0bbe d531 013e 516c 333d ff9d e83d
000002b0: 5445 01bd 6817 d0bd 1a10 72bc d40b b9bd
000002c0: 3b4f c7bc 1328 86bd 93d5 ee3d 3a43 45bd
000002d0: 33bd 173e ba9d fcbc fed8 17be 236e 403d
000002e0: 2fa9 63bd 5221 f73d 4522 f23d 8faa 853d
000002f0: b08d fe3d 7a91 e5bd 625b f2bc 4fba b0bc
00000300: 7231 5c3d c13c 3f3d 950f 7abc 4baf d0bd
00000310: 6a14 5dbd 7c30 1ebd bbf3 033d d3a2 bcbc
00000320: c7f6 ea3b 1a0b 9b3b 9f73 de3d ba7f f73d
00000330: 8f0c 4e3d 38be 0a3e dbeb 5dbe 9205 11bd
00000340: ec42 8a3d b3d1 d13d df6b 56be 5f2e ad3d
00000350: def3 2bbd d02c 3d3d 8611 babd bbe8 b63d
00000360: 52cf 283e 8b39 81bd bf8b 03be 02ff 15bd
00000370: 900f 673c 62f2 22be 520e 26be 6b05 75bc
00000380: fbd2 d8bd 933f 173b 49c9 a6bd e829 b6bd
00000390: 9fb8 86bc bfd5 c43d 2b09 cc3d 4f30 18be
000003a0: ba9e 61bd c7b6 7d3e 49d7 833c d51d 10be
000003b0: 2b28 c0bd ccfa a2bd bac7 34be 5178 1cbd
000003c0: b117 27bc 6798 8b3a 7c9c 12bd 576e ca3c
000003d0: aab3 4e3e a2c3 75ba 6d62 ee3c e228 6ebd
000003e0: c18f 26be 2af9 d7bd cdf8 95bd cd85 c1bc
000003f0: cb2f c7bd 1d18 30be 42a0 863d 3509 373d

bias f4 [30]
0.11169748 0.06758241 0.08360891 -0.13024919 0.114056244 0.011248827 -0.034723535 0.013456091
-0.12431797 0.13108538 0.12803768 0.039302886 -0.040942624 0.1070282 -0.15269938 -0.16496974
0.15032448 0.019913092 0.03928943 -0.122997984 -0.07395917 0.13585396 0.07641287 0.09512575
-0.0027002692 0.10749091 -0.117512345 -0.07308251 0.1386715 0.07880433
00000000: a6c1 e43d a668 8a3d 263b ab3d 0b60 05be
00000010: 5296 e93d 004d 383c 443a 0ebd f076 5c3c
00000020: 6b9a febd 3f3b 063e 4f1c 033e 10fc 203d
00000030: 74b3 27bd 9a31 db3d 3a5d 1cbe d4ed 28be
00000040: a9ee 193e c820 a33c f4ed 203d 5ee6 fbbd
00000050: e877 97bd 4d1d 0b3e 5a7e 9c3d 4ad1 c23d
00000060: 00f7 30bb 3224 dc3d 50aa f0bd 48ac 95bd
00000070: e7ff 0d3e 2a64 a13d

weight f4 [4, 30]
0.11040693 -0.024527213 -0.13325538 0.16172509 -0.12362081 -0.07221926 -0.085777335 0.053482212
-0.007338203 -0.20204078 0.059788264 0.13420556 -0.054677453 -0.018643968 -0.090137266 -0.15292424
-0.09342294 -0.0035533307 -0.13293706 -0.20470333 0.0026814751 -0.023908518 0.17587507 -0.13114265
0.15553036 -0.24902664 -0.017773328 0.07567818 0.038874872 -0.14212178 0.05474406 0.09789503
0.19364181 0.022594575 0.01311564 -0.05470103 0.1765984 -0.15235141 0.03331238 0.032229654
-0.09706735 0.07848065 -0.14778334 -0.0018242293 -0.041053988 -0.107025005 -0.10135263 -0.18863918
0.08898242 0.13272063 0.16834144 0.031466294 -0.102884255 0.05495686 -0.023898369 0.09946907
0.25724712 0.011611207 -0.14366856 -0.06853591 -0.05390194 0.007749585 0.07795524 -0.050493736
0.09689765 -0.13131611 0.04979394 -0.11127569 0.1835918 -0.12701304 -0.067140706 0.010422111
0.050701316 -0.028008727 -0.099582605 0.011833143 -0.033594027 -0.12601052 0.115409374 0.046685513
-0.026392344 0.043457065 -0.020458909 0.028686417 0.17598186 0.16759102 -0.09412351 -0.006152065
-0.05716535 0.09176599 -0.0026775254 -0.009715844 0.027044673 -0.226516 0.085994355 -0.07648587
0.006047569 -0.093549214 -0.07817151 -0.030370522 -0.15758198 -0.095501885 -0.040611904 0.18189697
0.06328268 -0.18260854 0.021528833 0.03440242 -0.15289535 -0.052962434 -0.064225785 0.055240538
-0.12582375 0.05085632 -0.050328013 0.062134713 0.121404804 0.034172487 -0.096494704 -0.25848863
00000000: 071d e23d 4bed c8bc 1974 08be 439b 253e
00000010: e82c fdbd b1e7 93bd 07ac afbd 2a10 5b3d
00000020: 4f75 f0bb c7e3 4ebe 8ae4 743d 2f6d 093e
00000030: 77f5 5fbd 3cbb 98bc e399 b8bd 2c98 1cbe
00000040: 8754 bfbd ffde 68bb a720 08be c09d 51be
00000050: b0bb 2f3b ccdb c3bc 9818 343e 424a 06be
00000060: 5a43 1f3e d700 7fbe 5f99 91bc 29fd 9a3d
00000070: 423b 1f3d 5f88 11be 4f3b 603d 317d c83d
00000080: 0a4a 463e 4218 b93c fbe2 563c 300e 60bd
00000090: 36d6 343e 0202 1cbe 9072 083d 3e03 043d
000000a0: 3fcb c6bd 77ba a03d 8454 17be fa1a efba
000000b0: 3a28 28bd ed2f dbbd f891 cfbd a12a 41be
000000c0: 6a3c b63d ebe7 073e b361 2c3e cde2 003d
000000d0: fbb4 d2bd 721a 613d 83c6 c3bc 71b6 cb3d
000000e0: e5b5 833e ef3c 3e3c da1d 13be 8e5c 8cbd
000000f0: 48c8 5cbd 3bf0 fd3b ffa6 9f3d 85d2 4ebd
00000100: 4672 c63d bb77 06be bbf4 4b3d 82e4 e3bd
00000110: 7dff 3b3e b50f 02be 1181 89bd 80c1 2a3c
00000120: 2fac 4f3d 8f72 e5bc f7f1 cbbd cddf 413c
00000130: e499 09bd e708 01be c05b ec3d 4f39 3f3d
00000140: c234 d8bc 0900 323d 7199 a7bc c7ff ea3c
00000150: 9734 343e fb9c 2b3e d4c3 c0bd 4397 c9bb
00000160: 3726 6abd cfef bb3d 6c79 2fbb 342f 1fbc
00000170: ca8c dd3c cff3 67be cf1d b03d a0a4 9cbd
00000180: b02a c63b bb96 bfbd 6218 a0bd 9acb f8bc
00000190: 2c5d 21be 7e96 c3bd ab58 26bd 3343 3a3e
000001a0: 5a9a 813d bcfd 3abe 3c5d b03c 8de9 0c3d
000001b0: 9990 1cbe 23ef 58bd cf88 83bd e743 623d
000001c0: f1d7 00be b74e 503d bf24 4ebd f880 7e3d
000001d0: 15a3 f83d 73f8 0b3d 049f c5bd 9f58 84be

bias f4 [4]
0.14743683 -0.069036245 0.11061379 0.07193905
00000000: aef9 163e e062 8dbd 7c89 e23d c854 933d
