p_pkl/DDPG_Critic_eval.pkl (torch, 7831 bytes, 5 tensors)

weight f4 [30, 36]
0.06756743 0.21051176 0.081322685 -0.0131926555 -0.02341932 0.012083623 0.23190586 0.036492117
0.09500469 0.06580611 0.004902934 -0.032454018 -0.1269631 0.061554827 -0.048043594 0.033938263
0.043760933 0.027459396 -0.19831459 -0.070170134 -0.14891094 -0.04728141 0.074717484 -0.008317393
0.038099866 0.07126657 -0.010075553 0.07247601 0.054928333 0.092506476 0.11659866 0.098903984
-0.13107726 -0.10683761 0.1098776 -0.1451336 0.09288875 0.011897842 0.11819416 -0.0076425606
0.10387596 -0.11845066 0.024936004 -0.042808894 0.12436575 -0.01592361 -0.21323179 -0.043635447
-0.0025390906 -0.1550434 -0.00013524531 -0.09382631 0.18029234 -0.1013962 -0.07586981 0.1268168
-0.073008925 0.11673372 -0.116865575 -0.0722763 0.0040255804 -0.033135835 -0.18871474 0.0008371851
-0.004430026 -0.15309657 0.02570124 -0.25887907 -0.0039641308 -0.009543538 -0.10903298 0.027809737
0.057499796 0.057841957 0.1523774 -0.09572556 -0.076867096 -0.049617898 -0.034614157 -0.092845194
-0.016567325 0.17690845 -0.0150997415 0.08840348 0.015040176 -0.016201911 0.21848486 -0.0848407
0.061192155 0.045974642 -0.052769423 0.048664 -0.040858015 0.03132915 0.11684467 -0.061326664
-0.023489958 0.08351129 -0.116505705 -0.18737637 -0.013486328 -0.044013012 -0.10768638 -0.06891786
0.24522166 0.20171706 0.0069965236 0.19252977 0.12553379 -0.0075090216 -0.14289367 0.07763191
0.09645091 0.13114753 0.05297492 0.12697558 -0.19339594 0.07416073 -0.07278965 -0.10011339
-0.010070742 0.09956346 -0.1353463 -0.04823133 -0.033227958 -0.03276739 0.07063593 -0.2235878
0.063924335 -0.09404277 -0.0611593 0.04452313 -0.00014082312 -0.033525944 -0.026990859 0.13147584
0.021946337 -0.1068507 -0.18562327 0.12853597 -0.15625995 0.1200458 -0.15548128 -0.022506433
0.09372931 -0.16421801 0.0027959545 -0.048712425 -0.078093775 -0.016133158 -0.12566946 -0.019455826
0.097541295 -0.020464057 -0.069854125 -0.035852384 -0.05366258 -0.025954533 0.074847795 0.07285012
-0.023423487 -0.045470357 0.08941581 0.034473352 -0.003590221 0.03770091 -0.07773455 0.20680566
0.0036415644 0.028542105 0.03771807 -0.0035130158 0.024419433 0.038169406 -0.108304754 0.008729788
-0.03912906 0.06561378 0.026348999 -0.11044399 -0.008497561 -0.026136745 -0.20264025 -0.1080179
0.20043497 -0.0455001 0.041643154 -0.0669722 0.13611907 0.029191762 -0.012569852 0.045355942
0.0818842 0.10359603 0.10244783 0.17369728 0.11717868 -0.06850718 -0.05641226 -0.04508027
-0.051259536 -0.040810537 -0.011498119 0.009353972 -0.038448915 -0.028174967 -0.06488698 0.028188465
-0.039526727 -0.03387965 0.014172851 0.022248697 -0.16453473 -0.03542736 -0.068440676 -0.03649987
0.0026636226 -0.084256016 0.06959774 -0.14369671 0.16572063 0.1049818 -0.11527296 -0.08121241
0.07693205 0.027827028 -0.16175857 0.051068842 0.08878164 0.12214289 0.08429789 -0.06508141
0.054942723 0.07481279 -0.019578924 -0.039167773 0.15915146 -0.042010184 0.086614996 0.057519346
0.1223345 -0.1165865 -0.037287917 -0.20828119 -0.018538713 -0.16442852 0.029607793 -0.07958843
-0.031164227 0.042315386 -0.047579665 -0.011308029 -0.0016118279 -0.2186331 -0.20048474 0.023005623
00000000: cb60 8a3d 6590 573e 828c a63d 0226 58bc
00000010: e0d9 bfbc 63fa 453c bb78 6d3e c278 153d
00000020: d291 c23d 5bc5 863d cba8 a03b 81ee 04bd
00000030: 9d02 02be ea20 7c3d 5cc9 44bd d902 0b3d
00000040: aa3e 333d 87f2 e03c fb12 4bbe 5cb5 8fbd
00000050: 1c7c 18be 27aa 41bd 7b05 993d ad45 08bc
00000060: 9b0e 1c3d 35f4 913d ef13 25bc 4d6e 943d
00000070: 88fc 603d 0974 bd3d 47cb ee3d 2c8e ca3d
00000080: 1e39 06be adcd dabd 8207 e13d e79d 14be
00000090: 753c be3d 2bef 423c c80f f23d 726e fabb
000000a0: ebbc d43d 4296 f2bd 9746 cc3c 6158 2fbd
000000b0: 78b3 fe3d 3b72 82bc 6f59 5abe 15bb 32bd
000000c0: df66 26bb b2c3 1ebe a3d0 0db9 0228 c0bd
000000d0: 8e9e 383e d0a8 cfbd a261 9bbd 43dc 013e
000000e0: b485 95bd 1712 ef3d 3857 efbd 9905 94bd
000000f0: 04e9 833b 71b9 07bd 703e 41be 8b76 5b3a
00000100: c029 91bb 59c5 1cbe 688b d23c cc8b 84be
00000110: 8ae5 81bb 805c 1cbc af4c dfbd 3fd1 e33c
00000120: e884 6b3d b0eb 6c3d d208 1c3e c30b c4bd
00000130: 7f6c 9dbd 233c 4bbd 93c7 0dbd 9f25 bebd
00000140: 33b8 87bc 7d27 353e e864 77bc e20c b53d
00000150: 126b 763c dfb9 84bc 7fba 5f3e f6c0 adbd
00000160: a0a4 7a3d e84f 3c3d c024 58bd e753 473d
00000170: bc5a 27bd ff52 003d 424c ef3d ab31 7bbd
00000180: 036e c0bc f807 ab3d 8b9a eebd 97df 3fbe
00000190: c2f5 5cbc fd46 34bd ad8a dcbd cf24 8dbd
000001a0: 631b 7b3e eb8e 4e3e 1843 e53b 8626 453e
000001b0: ee8b 003e 3d0e f6bb b852 12be 7bfd 9e3d
000001c0: 0e88 c53d 8a4b 063e 3bfc 583d e305 023e
000001d0: 9609 46be 95e1 973d bd12 95bd 4008 cdbd
000001e0: c1ff 24bc ede7 cb3d 3898 0abe 378e 45bd
000001f0: 0a1a 08bd 1937 06bd 92a9 903d 33f4 64be
00000200: c3ea 823d 7f99 c0bd 2d82 7abd e35d 363d
00000210: eba9 13b9 8052 09bd ef1b ddbc 9aa1 063e
00000220: cec8 b33c 8ad4 dabd 0714 3ebe ef9e 033e
00000230: 9c02 20be 93da f53d 7c36 1fbe 695f b8bc
00000240: 27f5 bf3d c428 28be 553c 373b ae86 47bd
00000250: a1ef 9fbd af29 84bc 7faf 00be d361 9fbc
00000260: bbc3 c73d 3da4 a7bc ae0f 8fbd f3d9 12bd
00000270: 4bcd 5bbd 9a9e d4bc cd49 993d 7232 953d
00000280: 9de2 bfbc 203f 3abd a31f b73d ee33 0d3d
00000290: ea49 6bbb 456c 1a3d 4b33 9fbd ddc4 533e
000002a0: 50a7 6e3b 22d1 e93c 437e 1a3d a03a 66bb
000002b0: 430b c83c 8657 1c3d e2ce ddbd 6207 0f3c
000002c0: cb45 20bd 8460 863d dbd9 d73c 7530 e2bd
000002d0: 5b39 0bbc ba1c d6bc ed80 4fbe 7d38 ddbd
000002e0: d33e 4d3e 505e 3abd 0392 2a3d b928 89bd
000002f0: cc62 0b3e 9023 ef3c c8f1 4dbc 27c7 393d
00000300: e7b2 a73d 282a d43d 2bd0 d13d b3dd 313e
00000310: 60fb ef3d 7e4d 8cbd 8b10 67bd 17a6 38bd
00000320: 85f5 51bd f328 27bd 9b62 3cbc 6741 193c
00000330: 9c7c 1dbd 30cf e6bc 77e3 84bd 7feb e63c
00000340: c7e6 21bd 63c5 0abd 3f35 683c e642 b63c
00000350: cb7b 28be 481c 11bd a02a 8cbd e380 15bd
00000360: 2c90 2e3b 6b8e acbd 4389 8e3d 3b25 13be
00000370: abb2 293e b300 d73d 3b14 ecbd b152 a6bd
00000380: 8d8e 9d3d 82f5 e33c 0aa4 25be 902d 513d
00000390: 26d3 b53d 0d26 fa3d 5fa4 ac3d 6749 85bd
000003a0: 9f0b 613d 7337 993d fb63 a0bc 636e 20bd
000003b0: 9af8 223e df12 2cbd 3463 b13d 6899 6b3d
000003c0: 838a fa3d e7c4 eebd 37bb 18bd aa47 55be
000003d0: 80de 97bc f35f 28be 0b8c f23c 42ff a2bd
000003e0: 1f4c ffbc e652 2d3d e5e2 42bd 5045 39bc
000003f0: f843 d3ba 5be1 5fbe df4b 4dbe 4a76 bc3c

bias f4 [30]
0.15018262 -0.15845582 0.02185285 -0.023679554 -0.05939289 0.021216437 -0.08021861 0.03553234
0.043988705 -0.041581407 -0.040861204 -0.07206808 -0.036361873 0.04904352 -0.117781125 -0.13179836
-0.16049522 -0.08539055 -0.0043411404 -0.07425376 -0.057450615 -0.15741038 0.085845396 -0.018191576
0.060408473 -0.16635995 -0.15816212 0.14945607 -0.094327986 0.009180918
00000000: 79c9 193e 3e42 22be c004 b33c a0fb c1bc
00000010: f645 73bd 18ce ad3c a849 a4bd 5c8a 113d
00000020: 802d 343d 4451 2abd 145e 27bd 6e98 93bd
00000030: 30f0 14bd dce1 483d 3b37 f1bd 26f6 06be
00000040: dc58 24be 3ee1 aebd 2040 8ebb 5b12 98bd
00000050: 5651 6bbd 3030 21be b6cf af3d 8006 95bc
00000060: e06e 773d 435a 2abe 40f5 21be 030b 193e
00000070: 082f c1bd 906b 163c

weight f4 [30, 4]
0.00872762 0.00036210005 0.08945519 -0.048434045 -0.027835494 -0.095462024 -0.031107355 -0.042045947
-0.02308152 0.098060995 0.048963442 -0.047257718 0.19951414 0.06398379 -0.004720018 -0.064290695
0.029441535 -0.021335358 -0.11950534 -0.04934259 -0.018540837 0.1380819 -0.06169303 -0.033101566
0.18124722 0.01923507 0.07424917 -0.043670874 -0.06952572 -0.13911067 -0.0006299449 -0.015012621
-0.00416852 0.076779336 -0.017219564 0.101921156 0.26309457 0.043616585 -0.16272584 -0.07362919
0.123101525 -0.0033147384 -0.03980314 0.030252099 -0.057299566 0.0063940035 0.0008175201 -0.13121341
-0.06209013 -0.23930569 0.18743093 -0.14166571 -0.06306521 -0.04562126 -0.17960504 0.0016806424
-0.033807084 0.01958771 0.104502514 0.13109607 -0.07538475 0.123901606 0.04710119 0.03889033
0.12780014 -0.044822402 0.06445685 0.010040235 0.1734942 0.017806446 -0.06296734 -0.047209535
0.0776433 -0.020295253 0.05709343 0.029964307 -0.18147671 -0.032481305 0.03658226 0.15325414
-0.13613772 -0.035954464 0.02278411 0.065138504 0.021466263 0.19627576 0.03276981 -0.0017119516
0.17208366 0.012403187 0.033762652 0.22110443 -0.16650884 0.044693787 -0.07262414 -0.04898533
0.0648123 0.039763447 -0.07337031 -0.1333162 -0.09083637 0.035280343 -0.00015595456 -0.10562878
0.10249317 0.0898095 -0.09557266 0.026791245 0.03386384 0.06508616 -0.08161928 -0.21364518
-0.18290292 0.13846879 0.0125961155 0.047887366 -0.019354908 -0.059260126 -0.0048030983 0.09399583
00000000: 4bfe 0e3c 3fd8 bd39 4834 b73d c762 46bd
00000010: 4307 e4bc 9881 c3bd dad4 febc 5f38 2cbd
00000020: 7515 bdbc 34d4 c83d e48d 483d 4f91 41bd
00000030: 6f4d 4c3e ef09 833d 61aa 9abb d7aa 83bd
00000040: 602f f13c 7dc7 aebc 37bf f4bd 751b 4abd
00000050: f4e2 97bc 5765 0d3e d5b1 7cbd 8295 07bd
00000060: df98 393e de92 9d3c f30f 983d 3be0 32bd
00000070: 8063 8ebd 0773 0ebe e322 25ba 7ff7 75bc
00000080: 1598 88bb 7c3e 9d3d 0b10 8dbc 0abc d03d
00000090: 55b4 863e 4ea7 323d 9aa1 26be e7ca 96bd
000000a0: a71c fc3d 153c 59bb 9e08 23bd 40d3 f73c
000000b0: f3b2 6abd ca84 d13b d84e 563a cf5c 06be
000000c0: 3852 7ebd 8d0c 75be e5ed 3f3e d110 11be
000000d0: 5528 81bd 5cdd 3abd 62ea 37be 0049 dc3a
000000e0: 4c79 0abd 6876 a03c 6a05 d63d 0c3e 063e
000000f0: 5263 9abd 20c0 fd3d 2ded 403d 774b 1f3d
00000100: 0ade 023e b297 37bd f401 843d cc7f 243c
00000110: 77a8 313e d3de 913c 05f5 80bd c95e 41bd
00000120: 7303 9f3d 3b42 a6bc cdda 693d b577 f53c
00000130: 08d5 39be 1e0b 05bd 48d7 153d a7ee 1c3e
00000140: b067 0bbe fd44 13bd bea5 ba3c 5667 853d
00000150: 04da af3c 83fc 483e a339 063d 9063 e0ba
00000160: b336 303e bd36 4b3c b54a 0a3d 3369 623e
00000170: 4b81 2abe d510 373d f7bb 94bd d7a4 48bd
00000180: 50bc 843d ffde 223d 2c43 96bd 0b84 08be
00000190: 6b08 babd 1f82 103d bc87 23b9 e753 d8bd
000001a0: f0e7 d13d 0bee b73d 99bb c3bd 5079 db3c
000001b0: cfb4 0a3d e54b 853d 0228 a7bd cdc5 5abe
000001c0: e74a 3bbe c3ca 0d3e f05f 4e3c 8b25 443d
000001d0: 2f8e 9ebc bfba 72bd 4f63 9dbb e380 c03d

bias f4 [30]
-0.3960333 -0.2483446 -0.40983826 -0.15241551 0.2086696 -0.39472502 -0.108142614 -0.13340521
-0.4775458 0.49993914 -0.3448407 -0.15389603 0.2553177 -0.31515783 -0.10234314 -0.42955357
-0.2953419 -0.115216434 0.46021104 0.086141944 -0.48489594 0.31325012 -0.07720709 0.25200307
-0.14837205 -0.21888232 0.20118654 -0.24949062 -0.038764715 0.1401928
00000000: e0c4 cabe 0c4e 7ebe 52d6 d1be d012 1cbe
00000010: 7cad 553e 6619 cabe e079 ddbd 609b 08be
00000020: e280 f4be 06f8 ff3e f68e b0be ec96 1dbe
00000030: 00b9 823e 5e5c a1be 4899 d1bd 72ee dbbe
00000040: 0e37 97be 98f6 ebbd c8a0 eb3e 306b b03d
00000050: 4844 f8be 5262 a03e c01e 9ebd 8c06 813e
00000060: d8ee 17be b022 60be d803 4e3e 787a 7fbe
00000070: c0c7 1ebd b48e 0f3e

weight f4 [1, 30]
-0.0027763306 -0.007860655 -0.0613451 -0.25754082 -0.107998304 0.06167795 -0.03214721 -0.023439372
-0.05469997 -0.12018974 -0.15936193 0.011405022 -0.0110946065 -0.025465567 -0.057912834 0.0071783937
0.14337933 -0.041318156 0.03478846 0.060484856 -0.14581159 -0.15778255 0.055446584 -0.0070099602
-0.018326286 0.1821575 0.0380649 -0.068454616 -0.051199254 -0.070311375
00000000: 19f3 35bb fac9 00bc 0045 7bbd 64dc 83be
00000010: 372e ddbd 05a2 7c3d cbac 03bd ed03 c0bc
00000020: 130d 60bd 0a26 f6bd c62f 23be 21dc 3a3c
00000030: 27c6 35bc 2a9d d0bc 0236 6dbd bb38 eb3b
00000040: 08d2 123e 3a3d 29bd 587e 0e3d f8be 773d
00000050: a24f 15be c091 21be f51b 633d cfb3 e5bb
00000060: 0221 96bc 7f87 3a3e f1e9 1b3d ef31 8cbd
00000070: 4fb6 51bd 69ff 8fbd
