p_pkl0/DDPG_Critic_target.pkl (torch, 7831 bytes, 5 tensors)

weight f4 [30, 36]
00000000: 9fdc 93bd 5939 acbd 7b82 c23b 2afa d23d
00000010: 9798 003e 485d a8bb ee45 003d 9fc0 883c
00000020: 1558 993c b39c 083d af3e f63b 57a8 5bbd
00000030: 6d6e 413e 84c9 303d f027 75bd 17a3 7cbd
00000040: b980 3a3d 5373 72bc 7452 383e 7bfa 94bd
00000050: 73cd acbd 426e 4d3d ed90 e5bd eda0 143d
00000060: 5d1a d5bc ee48 b9bd e274 163d e70f 4b3d
00000070: 0afd 5ebe 1301 7cbd 53e8 f6bd 2891 62bd
00000080: f718 073e e172 bcbc fa7d 843d 6c6b bd3d
00000090: 13b7 15bb dfb1 8dbc 3054 323d 343c 35bd
000000a0: 6d79 6abc a37a cebd e5f1 743c 7509 ef3d
000000b0: fd36 bebd db04 dfbd 8d9f 323d a031 d7bd
000000c0: 6ca3 12bc 1516 ed3d 4baf 01be a802 d23d
000000d0: 9cd9 39be b739 44bd ca54 013d ffaa c1bd
000000e0: 8e8f 2ebe 97b6 e0bd 1760 303e 99f6 c33d
000000f0: a003 a43d 3b31 89bb 1148 2bbe 8571 70be
00000100: cc08 193e 45f1 24be c1e8 87bc 4f0c 72bc
00000110: 480d 843d 7d3f fe3d 2dc0 f9bd 0c37 203d
00000120: f4ef ba3d 9acf 003e 60b3 ce3c ce3e af3d
00000130: 80aa 01bd 174b 35be 2a04 233d e347 92be
00000140: adbd 243b bf07 a3bd 88da ed3c 6cfd 1f3e
00000150: ebb2 413e 637a 7fbd 1b1f 71be 7bcd cc3d
00000160: 249d 0a3e 874d 66bd ba12 813d 4a07 873b
00000170: aa66 76bd 6491 953c b307 613d 3f91 47bd
00000180: d917 a7bd 5a5d e8bd cd38 5f3c 0c4b 0f3c
00000190: a0d0 993d 60b6 a63d 3fce d33c 8b76 603d
000001a0: 2d0e 12be 4718 03bd fb80 17be 7e02 163e
000001b0: 2b51 093e e145 1e3d 572f 173d 6b9c 4d3c
000001c0: 07f4 f9bd 43be 903d da94 943d 3b1c e33c
000001d0: cbef 0f3c a161 193e 7a9e 41be 4bc5 443d
000001e0: 8fe4 17bd e560 4fbd 57c6 77bd 0b86 3b3d
000001f0: b2d3 443b da5d f7bc d0c1 31be afb4 303e
00000200: 8a35 62bd dc8a a0bd d9a2 b03d 0850 fdbc
00000210: fb33 07bd c429 bd3d 53fd de3d c8ca 253a
00000220: 3df0 74bd 4f9d d53d f074 71ba fbe8 82bd
00000230: 57b1 8a3d e8d5 70bd d42f 053e d038 eebc
00000240: a553 59bd 9d65 bd3c 0206 ee3d 9c88 4c3d
00000250: 516b a0bc 931e b1bd cb46 1abe 4c2c 03be
00000260: efab 893c fa59 8ebd 7c41 2bbe 2d6a d63c
00000270: 0b6f 01bd 5734 053d 56d2 07be 1f2a 873d
00000280: bdf5 55bd 85a2 b0bd dda6 813d bf01 243d
00000290: eb1e 113e 0351 b1bc c903 0abe cc99 2dbc
000002a0: 7471 b6bd 0f80 fabc 1b82 19be 7f88 c03c
000002b0: 3b3f ef3c edb9 0fbd 4574 5dbd 9299 2c3e
000002c0: c22a 653c 825c 14be 4fee 5c3d d59f 17be
000002d0: ca3c 10be cf53 63bd 0ec3 8c3d fdbc 62be
000002e0: 743c 88bd 252b c0bd 7292 583d 61df a13d
000002f0: 3cdd a8bc a820 31bc 758c 513c 87eb 803d
00000300: 0d97 fd3b 5a91 fc3c 7d9f 6cbd c851 a0bd
00000310: b676 a93d 8084 e3bc 3f6d b438 5703 0f3e
00000320: 7629 81bd 8f2f 8c3d b2e3 cc3d 1772 153e
00000330: ef2d 8fbc 9eb1 0fbe 5301 fabd 6f54 7c3c
00000340: c3cb d13d dd7b 43bd f2d7 81bd 5532 99be
00000350: 822a 8fbb 5807 053e c3ab 6f3d 0f98 21bd
00000360: cf79 4a3c 2471 adbb a184 bcbd a323 79bd
00000370: e921 43bd be86 acbd f86f b0bd c898 eabc
00000380: 8981 27be a836 f539 42ca d93d fb0c 193e
00000390: 4f1a e03d 37f5 9a3d 326b a9bd 032d 713d
000003a0: fa9c f1bb a3f5 583d 0b24 433c 9bce 6e3d
000003b0: acec 003e f774 33bd 92d5 6f3d 1b01 7b3e
000003c0: 561f a6bd e01d 2cbd 673b fd38 ebef c3bd
000003d0: ad39 113e f17a 173e f5e5 ac3d 3bca 133d
000003e0: c2d8 7bbe d3cc 42bc f9d6 b3bc c875 a93a
000003f0: a5ec 7f3d 3423 96bd 7188 423d f2e9 673c
-0.072198145 -0.08409376 0.0059359646 0.10301621 0.12558208 -0.005138073 0.03131669 0.016693411
0.018718759 0.033352565 0.0075147967 -0.05362734 0.1888978 0.04316093 -0.05985254 -0.061678972
0.045532916 -0.014798003 0.18000203 -0.07274338 -0.08437624 0.05015398 -0.11209283 0.036286283
-0.026013548 -0.09047113 0.036732562 0.049575713 -0.21776214 -0.061524462 -0.12056031 -0.055314213
0.13193117 -0.023003997 0.064693406 0.09249005 -0.0022844716 -0.01729673 0.04353732 -0.044246867
-0.014311177 -0.10081985 0.01495025 0.11671726 -0.09287832 -0.10889598 0.04360919 -0.10507512
-0.008950096 0.115764774 -0.12664525 0.10254413 -0.18149418 -0.047906604 0.031575 -0.09456443
-0.1704695 -0.10972326 0.17224155 0.09568519 0.08008504 -0.004186777 -0.1672671 -0.23480804
0.14944762 -0.16107662 -0.016590478 -0.014773442 0.06447846 0.12414453 -0.12194858 0.039114997
0.09127799 0.12579194 0.025232017 0.08556901 -0.031656742 -0.17704426 0.039798893 -0.2857047
0.002513747 -0.07960462 0.029034868 0.15624017 0.18915908 -0.062372576 -0.23547022 0.1000013
0.13536507 -0.05622628 0.063024 0.004120742 -0.0601565 0.018257804 0.054938983 -0.0487225
-0.081588455 -0.113459304 0.013624382 0.00874592 0.07510495 0.08140254 0.025855182 0.05480055
-0.1426322 -0.032005575 -0.14795296 0.14649388 0.1340987 0.03864086 0.03691038 0.0125495
-0.12204748 0.070675395 0.07254954 0.027723422 0.008785198 0.14978649 -0.1890811 0.048039716
-0.037083205 -0.050629515 -0.060491886 0.04578213 0.0030033407 -0.03019612 -0.1735909 0.17256425
-0.05522684 -0.07838985 0.08624811 -0.030921951 -0.033008557 0.09236482 0.108881615 0.0006324467
-0.05979942 0.10430395 -0.00092108455 -0.06392094 0.06772106 -0.058797747 0.13006526 -0.029079825
-0.053058285 0.023119742 0.1162224 0.04993497 -0.019582422 -0.0864841 -0.15066068 -0.12809867
0.016805617 -0.069507554 -0.16724199 0.026173675 -0.03160004 0.03252062 -0.1326383 0.06599831
-0.052236307 -0.08624748 0.06330655 0.040040728 0.1417195 -0.021645075 -0.13478006 -0.01059575
-0.08908358 -0.030578641 -0.14991038 0.023502586 0.029204955 -0.035089422 -0.05406596 0.16855457
0.013987245 -0.14488414 0.053938206 -0.14807065 -0.14085689 -0.055499848 0.06873141 -0.22142406
-0.066521555 -0.09383229 0.052874036 0.07903934 -0.020613305 -0.0108110085 0.012789835 0.06294923
0.007738954 0.030831028 -0.057769287 -0.078280985 0.082745954 -0.027773142 8.6034175e-05 0.13966118
-0.06306736 0.068450086 0.10004367 0.14594303 -0.017477958 -0.140326 -0.12207284 0.01540099
0.102439426 -0.047725547 -0.063400164 -0.29921213 -0.004369081 0.12991083 0.058513414 -0.039451655
0.012358143 -0.0052930284 -0.092049845 -0.060825 -0.04763976 -0.084241375 -0.08615106 -0.028637305
-0.16358007 0.00046770764 0.10634281 0.14946358 0.10942518 0.07566302 -0.08272399 0.058880817
-0.0073734494 0.052968632 0.011910449 0.058302503 0.12590283 -0.04381272 0.058553286 0.2451214
-0.081114456 -0.04202068 0.00012075045 -0.09567245 0.14182158 0.14792992 0.08442298 0.036081534
-0.24594405 -0.011889654 -0.021953093 0.0012928778 0.06248154 -0.07330933 0.047493402 0.014154898

bias f4 [30]
00000000: c4ab 01be c612 f3bd f0e5 7bbd 6eb9 87bd
00000010: 1359 e4bd eac8 b33d 90cc 1d3d 0098 b93c
00000020: f808 83bd 1031 cbbd 3ecd b13d f2c0 b13d
00000030: c88f f5bc 0052 5abd 62e4 ee3d e6b7 b5bd
00000040: e0f6 b03c 4638 2dbd 6a59 fc3d e080 eebb
00000050: 0660 4ebd c0e3 2cbb eab7 db3d 622e d53d
00000060: 001a 59bb 440d 01bd 8e4a a2bd 40e1 0cbe
00000070: cc5a 47bd 3b65 debd
-0.1266318 -0.11868815 -0.061498582 -0.06627165 -0.11149802 0.08778556 0.038525164 0.022655487
-0.06398195 -0.09921467 0.08681725 0.086793795 -0.029975787 -0.053300858 0.11664654 -0.088729665
0.021602094 -0.042289995 0.12321742 -0.0072785467 -0.050384544 -0.0026380867 0.10728438 0.104092374
-0.003312707 -0.03150679 -0.079243764 -0.13757801 -0.048670575 -0.10859152

weight f4 [30, 4]
00000000: cb0f ba3c 2b97 963e 479f 1abe b5a0 e8bd
00000010: 543e 403c 3765 d53d 238e 313e 5360 c2bc
00000020: 16a9 0b3d 6dee 823c 8d99 513e 35a6 43bd
00000030: 5739 37bd 98cd ab3d d71d 7abd 43ec 5a3e
00000040: 01b5 863b bf13 933d 6785 83bd 9efb 273e
00000050: 476e 81be bfe1 23be a5c9 6b3c c3c9 133d
00000060: f230 013e 1817 56bd 7999 823e de02 b13d
00000070: 5b16 46bd e55a 093e a2b2 87bb 801d 26bd
00000080: ef2e 8abb 53be 57bd ed8b e3bd 4733 043d
00000090: 174e edbd b2e8 cc3d ced5 44bd b501 c53b
000000a0: 3e37 20be 2a71 b5bd b69d 8b3d 9eda babc
000000b0: 6764 14bd 9bd9 3c3d 22ab d33c a866 af3d
000000c0: 4489 29bc 48a3 e13a 9ae8 debc 8140 8ebd
000000d0: 8fd3 643e 8d32 7ebd 1232 e7bd 3ba3 eeba
000000e0: fc1b 21bd a323 48bd c22d 833d 8623 47be
000000f0: b3f0 c1bc 59a2 ba3c f4ff a93c 6afd 6abd
00000100: 401d a5bd bd67 553d 7990 383e 52a6 bfbd
00000110: dee7 b7bd 5f6e 65bc 2ddd c5bd baf0 22bb
00000120: 0688 b63c dede 023c 9716 d63d eafe 7abc
00000130: bab9 193d 4b4d 35bc 33cf 783e 9f74 0ebe
00000140: 622d ae3d 1b50 1abd a510 953c 973c cdbc
00000150: f8f7 4d3c 69c0 a33d 2f92 e23d bd3a 7abc
00000160: 39b2 46bd 8b5a 0cbd d38e 3ebd a8df 54bc
00000170: e7b6 57be 0117 0cbe 1b18 ce3d a4c5 84bd
00000180: 1401 0ebe 141f 9cbd d5a0 f43c 852b 993c
00000190: 7bab 86bd 496c 86bd c3c8 db3d 16f1 07be
000001a0: 8bdf 7f3d 87de 9abc c7db 113c f89b a738
000001b0: b14f 09bd 3eed a9bd 3d19 d1bc 0c5c 1c3e
000001c0: 1b99 813d 9daf e1bc c581 fc3c 3b0a b83d
000001d0: 28d4 613d cf59 cbbc 859d e53d d20b 88bc
0.022712609 0.29412207 -0.15099822 -0.113587774 0.01173361 0.10419696 0.17339377 -0.023727572
0.0340968 0.01598283 0.20468731 -0.04776593 -0.044732418 0.08388823 -0.061063614 0.21379189
0.004110933 0.07181501 -0.06421929 0.16404578 -0.25279447 -0.16004084 0.0143913375 0.036081087
0.12616327 -0.052268118 0.25507715 0.08643125 -0.048361164 0.1341358 -0.0041411677 -0.040555477
-0.0042170207 -0.05267174 -0.11110673 0.032275464 -0.1158716 0.100053206 -0.048055463 0.0060121664
-0.15646073 -0.08859475 0.0681719 -0.022809323 -0.036228564 0.046105962 0.025838438 0.08564502
-0.010347668 0.0017214799 -0.027210522 -0.06945897 0.22346328 -0.062059928 -0.11288847 -0.0018206605
-0.03933333 -0.04886211 0.06405212 -0.19447145 -0.023674345 0.022782492 0.02075193 -0.05737058
-0.080622196 0.052100886 0.18023862 -0.09357895 -0.08979772 -0.014003365 -0.096613266 -0.0024862722
0.022281658 0.007987706 0.104535274 -0.015319565 0.03753064 -0.011065791 0.2429779 -0.13911675
0.0850475 -0.03767405 0.018196413 -0.025053306 0.012571327 0.07995684 0.110630386 -0.015272793
-0.04850981 -0.034266036 -0.046522927 -0.012992777 -0.21065865 -0.1368065 0.100631915 -0.064830095
-0.13867599 -0.07623115 0.029861847 0.01869751 -0.06575676 -0.065636225 0.10731652 -0.1327556
0.062469047 -0.018904937 0.008902497 7.992232e-05 -0.033523265 -0.082972035 -0.02552473 0.15269488
0.06328031 -0.02754956 0.030823598 0.08986326 0.05513397 -0.024823098 0.11211685 -0.016607199

bias f4 [30]
00000000: 20e5 a8bd b064 cf3d 28a8 3cbe ac55 c6be
00000010: c858 02be d65e e63e 28c3 cf3d b88c c13d
00000020: a09c 9b3c c220 aebe 7ab8 9bbe bedf af3e
00000030: 4808 73be 5258 f5be 5072 9f3e 1ab6 f03e
00000040: e0bb dcbc 20a3 d2bc fcc6 6d3e d0a8 643e
00000050: e405 b43e e08b 293d 6c7b bcbe 4a1d a73e
00000060: 78f6 993e c804 23be d287 adbe f00c fabe
00000070: 4e53 8fbe 60f9 353d
-0.08246827 0.101266265 -0.18423522 -0.38737237 -0.1272918 0.4499423 0.10144645 0.09450668
0.018995583 -0.34009367 -0.30414182 0.3435039 -0.23733628 -0.47918946 0.311419 0.47013932
-0.026945055 -0.02571255 0.23220438 0.22330022 0.35160744 0.04139316 -0.36812913 0.32639533
0.30070853 -0.15919793 -0.33892685 -0.48837996 -0.27993244 0.044427276

weight f4 [1, 30]
00000000: 4e6f 1f3d 3a33 45bd fbbf 3fbc ce37 9a3d
00000010: efe9 723d a512 873d 4c98 083d 6866 873d
00000020: d7e5 973d 9633 c4bb 3da3 55bd 0219 b33c
00000030: 706e 5c3e 0f4d d73c f71a 0bbe c252 57bd
00000040: 8539 8bbe 8590 5e3d 9a31 25bc 73b3 dbbb
00000050: 7ac9 d13d 9046 5dbd 37a6 033e 0fcb 673d
00000060: ebbc b5bc f393 15bd 15b5 85bd 479b 86bc
00000070: a8b8 c0bc 50ec 183e
0.038924508 -0.048144557 -0.011703487 0.07530175 0.059305128 0.06595353 0.033348367 0.06611329
0.07416885 -0.005987595 -0.05215763 0.02186251 0.21526504 0.026281862 -0.13584505 -0.05256916
-0.2719232 0.054337043 -0.010082627 -0.0067047416 0.10243507 -0.05402237 0.12856375 0.056590136
-0.02218481 -0.03651805 -0.06528679 -0.016431464 -0.023525551 0.14933896
