p_pkl0/DDPG_Actor_eval.pkl (torch, 7071 bytes, 4 tensors)

weight f4 [30, 36]
0	0x3bcb9754	0.006213108
1	0xbce46687	-0.02788092
2	0xbc882d3e	-0.016623136
3	0x3d8659af	0.065600745
4	0xbcb5cd67	-0.02219267
5	0x3d22e158	0.039765686
6	0xbe13cc3a	-0.14433375
7	0x3d53d4b5	0.051716525
8	0xbd852951	-0.06502021
9	0x3e105d27	0.14098035
10	0x3d92e28b	0.07172116
11	0x3c515692	0.012776988
12	0xbdedd6e2	-0.11613251
13	0x3dc89f5c	0.097960204
14	0x3dcba171	0.09942902
15	0x3c531e6d	0.012885672
16	0x3d8731f7	0.06601327
17	0xbe36de1d	-0.17858167
18	0x3d9bbbab	0.07604154
19	0x3c1c7587	0.009549505
20	0xbd4884ca	-0.048954763
21	0x3c8920c1	0.016739251
22	0xbd5fcde0	-0.054639697
23	0x3c0c047c	0.008545991
24	0x3d08faa5	0.03344216
25	0x3c1010bd	0.008793053
26	0x3e98f445	0.29873863
27	0xbe612d6d	-0.21989985
28	0xbe4f0020	-0.20214891
29	0xbdc175fb	-0.09446331
30	0xbdbf4ec5	-0.09341196
31	0xbd144119	-0.036194894
32	0xbb46e2f5	-0.003034768
33	0x3d3ef147	0.04661682
34	0x3cad9e93	0.021193778
35	0x3cb52e81	0.022116901
36	0x3d6edd6b	0.05831663
37	0x3ddb14d5	0.10697333
38	0xbd96b393	-0.0735847
39	0xbd902121	-0.07037569
40	0x3e040773	0.12893467
41	0x3d868c33	0.0656971
42	0x3d28e7ee	0.04123681
43	0x3c71a7c7	0.014749474
44	0x3d513f05	0.05108549
45	0xbd1368eb	-0.03598873
46	0xbd96d0a2	-0.07364012
47	0x3d18cc73	0.037304353
48	0xbe26257d	-0.16225238
49	0xbc902a49	-0.017598288
50	0x3b1b7153	0.002371867
51	0x3d964785	0.0733786
52	0xbe0f3beb	-0.139877
53	0x3da713f7	0.08158105
54	0x3e7cb6b0	0.24679065
55	0xbda9b33d	-0.0828614
56	0x3e240917	0.16019093
57	0x3daa7091	0.083222516
58	0x3d4423b5	0.047885615
59	0x3d06dcf2	0.032925554
60	0x3dd4c692	0.10389437
61	0x3e033823	0.12814383
62	0x3d37abfb	0.044841748
63	0xbd2a5727	-0.04158702
64	0x3ca9fc5a	0.020750213
65	0xbe5bed25	-0.21477182
66	0xbe1b42f7	-0.15162264
67	0x3d01a940	0.03165555
68	0x3c8a0b8b	0.016851207
69	0xbcbe915f	-0.023262678
70	0x3d35f1a3	0.044419896
71	0x3e17e8b9	0.1483487
72	0x3d428eb2	0.047499366
73	0xbd64423b	-0.055727225
74	0xbd20cfd3	-0.039260697
75	0xbdc0db78	-0.0941686
76	0xbdf25c73	-0.118340395
77	0x3d728cb3	0.059216212
78	0xbd89a9cd	-0.0672184
79	0x3dfea155	0.124331154
80	0x3b73765a	0.00371494
81	0x3da9f3ac	0.0829843
82	0xbc9dee41	-0.019278647
83	0x3c8de30f	0.017320184
84	0xbc2db9fc	-0.010603424
85	0x3e238947	0.15970336
86	0x3e79adbf	0.24382685
87	0xbcd3314b	-0.02578034
88	0x3cec12c3	0.02881754
89	0x3c5d93c5	0.0135240005
90	0xbdc4544a	-0.09586389
91	0xbd4dae83	-0.050215255
92	0xbc91172d	-0.017711246
93	0xbd666090	-0.056244433
94	0x3d0ee784	0.03488876
95	0x3dffe1ef	0.12494265
96	0xbc9f760c	-0.019465469
97	0xbdcd3305	-0.10019497
98	0xbde0f45a	-0.10984106
99	0xbcdc2710	-0.026874095
100	0xbdc3d1ff	-0.09561538
101	0xbbbd4249	-0.005775724
102	0xbd3f2fb7	-0.046676364
103	0xbd6ce7a5	-0.0578381
104	0xbdb60073	-0.088868044
105	0xbdd3550b	-0.10318955
106	0x3c8c1c10	0.017103225
107	0x3dacf15e	0.08444475
108	0x3e95d93b	0.29267296
109	0xbce0daeb	-0.027448138
110	0x3e16d4a3	0.14729552
111	0xbd7daed0	-0.061934292
112	0xbdb5257a	-0.08845039
113	0xbc19a57a	-0.009377832
114	0xbc877933	-0.016537284
115	0x3e03aa85	0.12858017
116	0xbccd78b2	-0.025081966
117	0x3e12baff	0.14329146
118	0xbde3aa7b	-0.11116501
119	0x3c8182c5	0.015809426
120	0x3d209a00	0.039209366
121	0xbd85aea9	-0.065274544
122	0x3df7811b	0.12085172
123	0xbd10162b	-0.03517739
124	0xbe307797	-0.1723312
125	0x3d461663	0.048361193
126	0x3b072177	0.0020619312
127	0x3d54b35f	0.051928874
128	0x3d801656	0.0625426
129	0xbc20d660	-0.009816736
130	0x3dbf2533	0.09333267
131	0x3e710720	0.23537874
132	0xbdb54413	-0.08850875
133	0xbd9e1ca8	-0.077203095
134	0x3d9a40f2	0.075319186
135	0x3dfd7b8b	0.123770796
136	0x3da55a21	0.08073831
137	0xbb9cdba1	-0.004786924
138	0x3dee2ad0	0.116292596
139	0x3d038a6d	0.032114435
140	0x3d6c18b8	0.05764076
141	0xbc8b772f	-0.017024605
142	0x3db78edc	0.08962795
143	0x3bc36497	0.005962919
144	0x3d39e6cf	0.04538613
145	0xbe7c6393	-0.2464736
146	0x3cd2ad6f	0.025717465
147	0xbda131bb	-0.078708135
148	0xbe16101e	-0.14654586
149	0x3c7f4a08	0.015581615
150	0x3b2e7f1f	0.0026626063
151	0xbe332fb8	-0.17498672
152	0xbd055dc7	-0.032560136
153	0xbe00e81b	-0.12588541
154	0x3c8bcbd8	0.017064974
155	0x3e28a705	0.16469963
156	0x3ceacf88	0.028663412
157	0xbc80c699	-0.015719699
158	0x3b84454b	0.0040365807
159	0xbdc9ee03	-0.0985985
160	0x3d2f4877	0.042793717
161	0xbdc78884	-0.09742835
162	0x3cbc51f6	0.0229883
163	0x3d4666af	0.04843777
164	0x3d8122a7	0.063054375
165	0x3d8d8616	0.069103405
166	0x3e1ce52b	0.15321796
167	0xbdf923e2	-0.12165047
168	0xbbece5a5	-0.007229524
169	0xbd34f0f8	-0.04417512
170	0x3dd4d4f0	0.10392177
171	0xbd792b0f	-0.06083208
172	0xbe16add8	-0.14714754
173	0xbde1d192	-0.110263005
174	0x3d50d7ed	0.050987173
175	0xbcb4b417	-0.02205853
176	0x3dbcc169	0.092165776
177	0xbda3cfa6	-0.0799859
178	0x3d70cac0	0.058787107
179	0xbe0be5ac	-0.13661832
180	0x3d80680a	0.06269844
181	0x3dec4bef	0.11537921
182	0x3e6f1fc0	0.23351955
183	0x3d3802cb	0.04492454
184	0x3d39e57b	0.045384865
185	0xbd993f5b	-0.07482787
186	0x3dd63a82	0.10460378
187	0xbe707fb8	-0.23486221
188	0x3c474c68	0.012164213
189	0xbd97a22a	-0.07403977
190	0x3d374748	0.044745713
191	0x3d82906c	0.063752025
192	0xbe9550f4	-0.29163325
193	0xbe160708	-0.1465112
194	0xbdd3e8a7	-0.10347109
195	0x3cd8e5b3	0.026476717
196	0xbc04391f	-0.008070259
197	0xbd3d1923	-0.04616655
198	0xbe2c8d32	-0.16850737
199	0x3d0be868	0.034157187
200	0x3d3e313b	0.04643367
201	0xbcfd5605	-0.030924806
202	0x3d434358	0.047671646
203	0xbbf42f6a	-0.0074519413
204	0xbdba742b	-0.091041885
205	0xbbc2ad67	-0.0059410813
206	0x3d314410	0.0432778
207	0x3b972a42	0.004613192
208	0x3d97577f	0.073897354
209	0x3d461236	0.04835721
210	0xbc516fca	-0.012783
211	0xbda3e034	-0.08001748
212	0xbd7c156f	-0.06154388
213	0x3d05c096	0.032654367
214	0x3b2e8c70	0.0026634
215	0x3babad77	0.0052391845
216	0x3e75d9a5	0.24008806
217	0x3ccd5e82	0.025069479
218	0x3d83aa68	0.06428987
219	0x3e6c0d90	0.23052049
220	0xbd2da10e	-0.04238992
221	0x3e079628	0.13240874
222	0xbd28482c	-0.041084453
223	0xba5c886a	-0.0008412661
224	0x3e4f5de2	0.20250657
225	0xbdb12e83	-0.086514495
226	0xbcec20eb	-0.02882429
227	0xbe574c4f	-0.21025203
228	0x3dcf291a	0.101152614
229	0x3d26f252	0.04075844
230	0xbe041126	-0.12897167
231	0xbddf3665	-0.10899047
232	0xbcf0d685	-0.029399166
233	0x3db3d1ea	0.08780272
234	0x3de2da18	0.11076754
235	0xbde7efcb	-0.11325034
236	0x3e613a6b	0.21994941
237	0xbda95d8a	-0.08269794
238	0xbdc175f2	-0.094463244
239	0x3ceaff22	0.02868611
240	0xbe4e6b1f	-0.20158051
241	0xbe157337	-0.14594732
242	0x3e029827	0.12753354
243	0xbd309307	-0.043108966
244	0x3d46f2ae	0.04857128
245	0xbadd7042	-0.0016894417
246	0xbd698ac0	-0.057017088
247	0xbe0f4aed	-0.13993426
248	0xbdca229a	-0.09869881
249	0x3d92f04d	0.0717474
250	0x3b2c692f	0.0026307811
251	0xbdd3f933	-0.10350265
252	0x3e043d3a	0.12913981
253	0xbe01a291	-0.1265967
254	0xbe502932	-0.20328215
255	0xbcf9e20f	-0.030503301

bias f4 [30]
0	0x3d9673b8	0.0734629
1	0xbd148f00	-0.036269188
2	0xbca775c0	-0.02044189
3	0x3d8be5ca	0.06830938
4	0xbb3a35c0	-0.0028413385
5	0xbe020a72	-0.12699297
6	0x3c09b110	0.008404031
7	0xbd55f8bc	-0.052239165
8	0x3c92a0b8	0.017898902
9	0xbd2b8840	-0.041877985
10	0x3dd01672	0.10160531
11	0x3e001773	0.12508945
12	0x3db22d22	0.08700015
13	0xbd6c6da0	-0.057721734
14	0x3d7df3b0	0.061999977
15	0x3d8e1658	0.069378555
16	0x3db72042	0.089416996
17	0xbde70f20	-0.11282182
18	0xb9b0d200	-0.00033725798
19	0x3cd906c8	0.026492491
20	0x3e0e27bd	0.13882346
21	0xbd36b1dc	-0.044603214
22	0xbd35a3d0	-0.044345677
23	0x3d9279ba	0.07152124
24	0xbe157fcc	-0.14599532
25	0xbe0495a3	-0.12947707
26	0x3cfe5a18	0.03104882
27	0x3ca1a260	0.019730747
28	0x3d5530ac	0.05204837
29	0x3a760700	0.00093851984

weight f4 [4, 30]
0	0x3db1f383	0.08689024
1	0xbc9a5ae7	-0.018842174
2	0xbe2053f9	-0.15657033
3	0xbc05eef7	-0.008174649
4	0xbdce5caa	-0.10076268
5	0xbe1d3fae	-0.15356323
6	0xbbd301c0	-0.0064394176
7	0x3dc5378f	0.096297376
8	0xbdbdbd2c	-0.09264597
9	0xbdc16a3f	-0.09444093
10	0x3d98f1e5	0.07468013
11	0x3d676200	0.056489944
12	0x3e0a1fe6	0.13488731
13	0x3e143308	0.14472592
14	0x3d0a20b7	0.033722606
15	0xbcb336c5	-0.021876702
16	0x3d5ff205	0.054674167
17	0x3e333659	0.175012
18	0xbda2e13d	-0.07953117
19	0x3dff1ef8	0.12457079
20	0xbd4658d7	-0.048424568
21	0xbcb34669	-0.02188416
22	0x3cff8bdf	0.031194625
23	0xbd912af3	-0.0708827
24	0x3d919361	0.071081884
25	0xbd3de30a	-0.0463591
26	0xb964e0f0	-0.0002182757
27	0xbdfa1183	-0.12210371
28	0xbc2325f4	-0.009957779
29	0x3cfc5255	0.030800978
30	0xbbc62124	-0.006046431
31	0x3e083814	0.13302642
32	0xbc803039	-0.015647994
33	0xbda70d3e	-0.081568226
34	0x3da797e6	0.08183269
35	0x3d856712	0.065138
36	0x3d5ba77f	0.053626534
37	0x3d191de3	0.037382018
38	0x3d224526	0.039616726
39	0xbce49992	-0.02790526
40	0xbd99d1e7	-0.07510739
41	0xbe846dd4	-0.25865042
42	0xbbbef5fb	-0.005827663
43	0xbd45b993	-0.04827268
44	0xbdc6497a	-0.09681983
45	0x3d2ae363	0.04172076
46	0xbdc597ea	-0.09648116
47	0xb99bf922	-0.00029749522
48	0xbd152c5f	-0.03641927
49	0x3d10ead1	0.03538019
50	0xbc5dca8b	-0.01353706
51	0xbcf8aab5	-0.030354837
52	0xbd538d17	-0.051648226
53	0xbe5933cf	-0.2121117
54	0xbd9854a5	-0.0743802
55	0xba87571f	-0.0010325647
56	0xbe75e0e7	-0.24011575
57	0x3d174df1	0.036939565
58	0x3cab200f	0.02088931
59	0xbcee17af	-0.029064028
60	0x3e361e24	0.17784935
61	0xbddf1c80	-0.10894108
62	0xbd73f99d	-0.05956422
63	0x3cc4d489	0.024027126
64	0xbd8572fc	-0.06516072
65	0x3e1e4d2a	0.15459123
66	0x3d9a4f9f	0.07534718
67	0x3d5eb27d	0.05436944
68	0x3d6d4970	0.057931364
69	0xbd5a268a	-0.05325941
70	0x3d68eafd	0.056864727
71	0xbd36ffa5	-0.044677395
72	0xbde76157	-0.11297863
73	0xbd9b010a	-0.075685576
74	0xbbba44c0	-0.005684465
75	0x3d8e488b	0.0694743
76	0x3d4d696f	0.050149377
77	0xbc0edaad	-0.008719129
78	0xbd839935	-0.06425706
79	0x3d82c926	0.06386022
80	0xbdc03830	-0.09385717
81	0x3d1bc64f	0.03803092
82	0x3da78ba7	0.081809334
83	0x3e0eccc9	0.13945307
84	0xbd9521cf	-0.07281839
85	0x3c76840d	0.015046132
86	0x3e3ba105	0.18323143
87	0xbe02be8a	-0.12767997
88	0xbdacb6c7	-0.084332995
89	0x3da61550	0.08109534
90	0xbd865933	-0.06559982
91	0x3d63ad90	0.055585444
92	0xbd941ff3	-0.07232656
93	0xbe03a68d	-0.12856503
94	0x3dc0606b	0.0939339
95	0xbdd78bed	-0.105247356
96	0xbbac3d45	-0.0052563273
97	0x3cd0ee9d	0.025504405
98	0x3dc11c6b	0.094292484
99	0xbe0d4ce9	-0.1379887
100	0x3e0551af	0.13019441
101	0xbd140fe5	-0.03614797
102	0xbe2aa54b	-0.16664617
103	0x3e117e9b	0.14208452
104	0xbe8af6df	-0.27141473
105	0xbd16cfe2	-0.036819346
106	0xbbf1ca4d	-0.0073788525
107	0xbd3c3c92	-0.0459562
108	0x3cb6b85a	0.022304703
109	0x3e058fc3	0.13043122
110	0x3ce85d40	0.028364778
111	0xbd44ca74	-0.048044637
112	0x3c371775	0.011175026
113	0x3c0488ff	0.008089303
114	0xbe376c8e	-0.17912504
115	0xbdb6216b	-0.08893093
116	0x3e2b28a2	0.16714719
117	0x3d0dacfb	0.034588795
118	0x3e02291b	0.12710993
119	0x3d88488c	0.06654462

bias f4 [4]
0	0xbd717612	-0.05895049
1	0xbd013158	-0.0315412
2	0x3dc752ac	0.09732565
3	0xbdfdd8b6	-0.1239485
