g_pkl/dqneval_net.pkl (torch, 10783 bytes, 4 tensors)

weight f4 [50, 36]
0.010819802 0.0028890946 0.010542492 0.0017619256 -0.012124565 -0.010412022 -0.00064611196 -0.012041015
0.0012689617 -0.010050638 -0.0074667856 -0.0006487299 0.009705757 0.018849019 0.013585279 5.966043e-05
-0.00899979 0.010234134 -0.0019605702 0.015787322 -0.009248476 0.0024000108 0.011800152 -0.02005061
0.009349586 -0.017337479 -0.008361842 0.00899367 0.00528108 -0.0011655871 -0.01031783 -0.02961868
-0.0083488375 -0.009323046 0.00940238 0.008251435 0.004198862 -0.0024901484 0.002996293 -0.014800912
0.0029399535 -0.0044906135 0.0005577298 -0.009118582 0.012436928 -0.005977071 -0.0036568637 -0.004534314
-0.0119997235 -0.0050229854 0.02144888 0.016591791 0.0024258068 -0.0029508453 -0.019703282 0.00041154592
-0.014220989 -0.0012580247 -0.00992356 -0.00058774103 -0.004380625 -0.0005168688 -0.0021566518 -0.008510494
0.018050151 0.0038329486 0.011886793 -0.01542313 0.007186485 -0.0015075811 -0.0025667185 -0.018869411
-0.010359947 -0.013143856 0.0016317746 -0.014827318 -0.0154473 0.010106636 -0.0071082567 0.003461161
-0.0012911917 -0.004304199 0.005633779 -0.0009503038 0.012940157 0.012061174 -0.011067258 0.00586407
-0.008258663 0.00930878 0.016685985 -0.0044594244 -6.830412e-05 -0.005391949 9.406617e-05 -0.0046542767
-0.005018537 -0.0066078347 0.0010490526 0.015419306 -0.00046131227 -0.00655865 0.0068341517 -0.011424412
9.1735616e-05 0.005291486 -0.0014911896 0.021698238 -0.005619989 -0.0066262446 -0.015884615 -0.0062559596
-0.0021070554 -0.0073604723 0.00403293 0.009589542 -0.0074972147 -0.005592 -0.007725033 0.0031958148
-0.0023895635 -0.00095727306 -0.01079788 -0.014478673 -0.0032926325 0.011506129 0.004834219 -0.007282924
-0.016241614 0.0010224447 -0.009898166 0.008585046 -0.0035911081 -0.0248397 -0.004247045 -0.004650904
-0.009526383 -0.004015398 -0.0035130046 -0.00479844 -0.01122371 -0.0065014753 -0.010635076 0.011517677
-0.007184763 0.014287809 -0.0057541183 0.02596971 -0.0049089114 -0.015268732 0.005907609 -0.0067684827
-0.015114574 0.023078067 0.0023189196 -0.019250268 -0.0070793424 0.009200808 0.0085196495 -0.004069174
0.002831535 0.022530327 -0.0033177037 -0.006111871 0.019062776 -0.005913132 -0.006401261 -0.012002742
0.003648222 0.012522716 -0.0026735743 8.155327e-06 0.004813113 -0.012614029 0.02776542 -0.002723209
-0.0024049827 0.0022835517 0.020174554 0.0014810372 -0.009730928 0.0042982227 0.0016189686 0.0062093204
0.025395669 0.0010748775 -0.0018072836 -0.010473856 0.0058310125 -0.011702346 0.007220562 -0.00059440086
-0.0015555407 0.0019805632 -0.008682486 -0.00908984 -0.00015766147 -0.01386212 -0.014422223 -0.009465861
0.00015674983 -0.009646977 -0.008055712 0.00601443 -0.0155443875 -0.019877246 0.0014778527 0.017048778
-0.01039942 -0.00096236315 0.0023581958 0.0053062933 -0.0075874235 0.00035997797 -0.006066617 0.0077579897
-0.0055821543 0.0066095446 -0.011645561 -0.0015746094 0.00088945974 0.006236666 -0.007446883 0.01618633
-7.383236e-05 0.015991997 0.0110877855 -0.0068954197 0.010170547 -0.007285838 -0.0021757067 0.006426095
0.00070941186 0.004363712 -0.0028358605 0.015471991 -0.0035340139 0.00017546263 -0.00085304026 0.0052759117
0.0026566845 0.017760009 0.0037055227 0.002463677 0.0066370275 0.003688273 -0.005245547 -0.0023056676
0.0029062617 0.005009995 0.0039305543 -0.008181902 -0.003970526 -0.0037720932 0.007342515 0.008110958
00000000: 8a45 313c f756 3d3b 6bba 2c3c 6af0 e63a
00000010: 1da6 46bc 2f97 2abc d75f 29ba ad47 45bc
00000020: 4a53 a63a 6eab 24bc f0ab f4bb 870f 2aba
00000030: e504 1f3c 4269 9a3c ca94 5e3c e63b 7a38
00000040: db73 13bc 12ad 273c e97c 00bb 6a54 813c
00000050: eb86 17bc 8049 1d3b 6d55 413c 2d41 a4bc
00000060: 022f 193c 5407 8ebc 1b00 09bc 305a 133c
00000070: e90c ad3b 9dc6 98ba 1e0c 29bc e0a2 f2bc
00000080: 90c9 08bc b0bf 18bc 710c 1a3c 0731 073c
00000090: 9b96 893b c231 23bb 745d 443b 867f 72bc
000000a0: 3cac 403b ff25 93bb 9d34 123a 1b66 15bc
000000b0: 42c4 4b3c 4edb c3bb fea7 6fbb 9594 94bb
000000c0: 7d9a 44bc db97 a4bb 90b5 af3c 82eb 873c
000000d0: 49fa 1e3b f862 41bb c768 a1bc c2c4 d739
000000e0: 27ff 68bc 4ee4 a4ba 6d96 22bc a212 1aba
000000f0: 598b 8fbb 7a7e 07ba 9d56 0dbb 996f 0bbc
00000100: e9dd 933c 3532 7b3b d3c0 423c 4cb1 7cbc
00000110: 9b7c eb3b 079a c5ba 6436 28bb 0694 9abc
00000120: c4bc 29bc 5459 57bc 45e1 d53a 47ee 72bc
00000130: ac16 7dbc 4e96 253c 61ec e8bb a5d4 623b
00000140: 343d a9ba 3d0a 8dbb 909b b83b cf1d 79ba
00000150: f402 543c 3b9c 453c 7253 35bc 6227 c03b
00000160: 584f 07bc da83 183c 0cb1 883c 5d20 92bb
00000170: 7f3e 8fb8 f2ae b0bb 6445 c538 e782 98bb
00000180: 8a72 a4bb 8986 d8bb 5d80 893a 42a1 7c3c
00000190: 49dc f1b9 f2e9 d6bb 05f1 df3b 752d 3bbc
000001a0: 2f62 c038 3464 ad3b 0574 c3ba 81c0 b13c
000001b0: e227 b8bb f820 d9bb 7420 82bc cbfe ccbb
000001c0: 8616 0abb 1e30 f1bb ab26 843b 741d 1d3c
000001d0: 32ab f5bb 193d b7bb 4622 fdbb e070 513b
000001e0: 399a 1cbb 82f1 7aba 97e9 30bc f537 6dbc
000001f0: 35c9 57bb 3484 3c3c 5e68 9e3b 98a5 eebb
00000200: 220d 85bc 8d03 863a eb2b 22bc 4ba8 0c3c
00000210: cc58 6bbb a07c cbbc cc2a 8bbb 9c66 98bb
00000220: 8c14 1cbc 9a93 83bb 703a 66bb 3b3c 9dbb
00000230: a7e3 37bc 540a d5bb be3e 2ebc a4b4 3c3c
00000240: 296e ebbb 6a17 6a3c 0b8d bcbb 6ebe d43c
00000250: efda a0bb b429 7abc 9e94 c13b 26ca ddbb
00000260: 1ea3 77bc 370e bd3c 04f9 173b bdb2 9dbc
00000270: d4f9 e7bb fcbe 163c 0096 0b3c b556 85bb
00000280: 4691 393b 8591 b83c d56d 59bb 1746 c8bb
00000290: 8a29 9c3c f2c2 c1bb abc1 d1bb 26a7 44bc
000002a0: 0217 6f3b 142c 4d3c 2237 2fbb ddd2 0837
000002b0: 51b7 9d3b 13ab 4ebc 4e74 e33c de77 32bb
000002c0: ea9c 1dbb a4a7 153b 1b45 a53c 5d1f c23a
000002d0: 786e 1fbc 1bd8 8c3b 9233 d43a 8e77 cb3b
000002e0: 940a d03c e7e2 8c3a 60e2 ecba 899a 2bbc
000002f0: 1412 bf3b 32bb 3fbc 779a ec3b 91d1 1bba
00000300: 49e3 cbba 56cc 013b fc40 0ebc 8ded 14bc
00000310: ee51 25b9 f21d 63bc 304b 6cbc b316 1bbc
00000320: 365d 2439 5b0e 1ebc 1bfc 03bc b214 c53b
00000330: e3ad 7ebc 9bd5 a2bc 82b4 c13a e1a9 8b3c
00000340: 5462 2abc 1947 7cba f68b 1a3b 6ae0 ad3b
00000350: ec9f f8bb 6dbb bc39 79ca c6bb bc36 fe3b
00000360: 81ea b6bb e194 d83b 06cd 3ebc 2063 ceba
00000370: a22a 693a f25c cc3b fb04 f4bb 3299 843c
00000380: 72d6 9ab8 a601 833c 8ba9 353c f9f2 e1bb
00000390: 5ea2 263c 0abe eebb 4d96 0ebb fe91 d23b
000003a0: d3f7 393a 78fd 8e3b d8d9 39bb 3c7e 7d3c
000003b0: ea9a 67bb 64fc 3739 909e 5fba 8ee1 ac3b
000003c0: c51b 2e3b 707d 913c 5bd8 723b a475 213b
000003d0: 6c7b d93b f4b6 713b d6e2 abbb af1a 17bb
000003e0: fb76 3e3b e22a a43b e1cb 803b 620d 06bc
000003f0: 301b 82bb 3935 77bb 7b99 f03b d3e3 043c

bias f4 [50]
-0.007877782 0.10208027 -0.050134897 -0.0017540008 -0.045418918 0.1598983 -0.16270094 0.0035143644
-0.12231108 -0.0831064 -0.0044929534 0.12659396 -0.098436914 0.028572068 0.021929339 0.023833677
-0.04565859 0.087356344 0.03073956 -0.024120882 0.14309917 -0.071728215 -0.15380554 0.16374953
-0.16005945 -0.0655278 0.11140849 -0.11738145 -0.12906468 0.018219575 0.1523905 0.12987314
-0.044565976 -0.08790749 -0.062348388 -0.13320999 0.05209963 -0.055910908 -0.11941942 -0.1647769
-0.13627782 0.083421305 -0.15212634 0.06742799 -0.03644432 0.15263392 -0.06245365 0.086397395
0.108637735 -0.0428558
00000000: d011 01bc 760f d13d 405a 4dbd 80e6 e5ba
00000010: 3009 3abd 61bc 233e 139b 26be 4051 663b
00000020: 3b7e fabd b033 aabd a039 93bb d9a1 013e
00000030: 4b99 c9bd f80f ea3c 28a5 b33c d83e c33c
00000040: 8004 3bbd e2e7 b23d 88d1 fb3c 2899 c5bc
00000050: 9788 123e 3ee6 92bd 337f 1dbe f5ad 273e
00000060: a0e6 23be 7033 86bd 222a e43d b065 f0bd
00000070: 8829 04be 3841 953c 410c 1c3e 77fd 043e
00000080: d08a 36bd d808 b4bd 0661 7fbd 3368 08be
00000090: 6c66 553d d602 65bd 2b92 f4bd 47bb 28be
000000a0: 6a8c 0bbe cad8 aa3d 02c7 1bbe b017 8a3d
000000b0: a446 15bd 114c 1c3e 66cf 7fbd 1ef1 b03d
000000c0: 767d de3d 9089 2fbd

weight f4 [6, 50]
0.0030060785 -0.0012849545 -0.013515835 0.013877329 0.010449205 -0.006662516 -0.009936548 0.0016282095
0.021288184 0.010043244 -0.008227337 -0.012432964 -0.014100897 0.015194389 0.0020690735 0.010424886
-0.018889833 -0.012277705 -0.005338602 0.0043893754 -0.0053495765 -0.0015075472 -0.014867085 0.0057558087
-0.007854513 0.0041229525 0.0014649344 -0.0014082433 -0.0033543834 0.0037002063 -0.016865883 -0.005374468
0.00012676661 -0.0058096694 -0.0008597849 -0.005420381 0.010772617 -0.0001263463 -0.0024877705 0.009700113
-0.007404739 -0.018592797 -0.0022171808 0.0032512797 0.00560608 -0.0022457677 -0.013720844 0.018102065
-0.00016457083 -0.013747839 -0.019546648 0.01398735 -0.0016930468 -0.0014850647 -0.0036952782 0.00949404
-0.004045077 0.01441873 -0.010349097 -0.0037684413 0.0027166097 0.01673852 -0.00539822 0.0017159958
-0.02050377 -0.031581856 0.015832577 -0.012302036 -0.0033205112 -8.2721606e-05 0.0026103337 -0.00594941
-0.00400988 0.000321873 0.005348994 -0.0044957297 0.0077930293 -0.013809749 -0.004989578 0.0054324553
-0.015393458 -0.00040981697 -0.007548118 0.0068899384 -0.004679217 0.009567607 0.013642052 -0.018289011
0.0056284284 -0.018473782 -0.013595326 -0.015591099 -0.0077132424 0.007192047 0.003708053 0.008321965
0.0075488864 0.010564438 -0.003531565 0.008368993 0.006871028 -0.0104184 -0.0028591082 -0.0069358475
-0.0051293503 -0.012155168 0.009135008 0.008773529 0.0057230624 0.0019596089 -0.013849 -0.005839478
-0.007818961 0.028584288 0.0064400695 0.011105703 -0.013094771 0.0075155203 -0.0139903445 0.0015131475
-0.0059904484 0.019754708 -0.0096317865 -0.0019007267 0.007951621 0.004348512 -0.0030699477 0.0040871045
0.007803121 0.0015483988 0.00062813703 0.0038416355 0.00012237135 -0.01523955 -0.0069853077 -0.0069121197
-0.0018536741 -6.101176e-05 0.0005640295 -0.005669373 -0.0031349426 -0.0056374283 -0.015329836 0.021384269
-0.0012341068 0.0051931622 0.0002458215 0.0045774337 -0.0056789266 -0.0037117873 -0.016746147 -0.0077616926
0.0113842795 -0.0053033456 0.0007527238 -0.007907621 0.013923042 0.0116482265 0.005068368 0.009061359
-0.010968295 0.004902397 -0.0002049552 0.008298687 -0.017283374 0.0038815716 -0.0041827434 0.013698514
-0.005657473 0.0038347298 0.011034078 -0.0013072841 0.01210289 -0.00198991 0.0032205326 0.008071772
-0.014071194 -0.018764904 0.0038152146 -0.00022232601 0.0018993004 -0.012798993 -0.00998323 0.03153233
0.0038506156 -0.004544763 0.0036937748 -0.0037875497 -0.011320056 0.01880969 -0.0110115 0.006320087
0.0038036848 -0.003522079 -0.006250791 -0.012617825 -0.0025538513 0.0021206737 0.011316859 -0.00027149846
-0.0010651861 0.013896201 -0.0009744694 0.011174954 0.014412196 0.0061876886 -0.008323594 0.009431164
-0.007046113 0.015767181 0.026175767 0.00625644 0.026213698 -0.0016004338 -0.0071197674 -0.0017463698
0.0060615283 -0.01314538 -0.005378369 -0.0057825046 0.0049267476 0.028274888 -0.0028847493 -0.008721954
-0.009135957 -0.0034415298 -0.0063676396 -0.007482513 0.008596807 0.009115784 -0.012649321 -0.009586691
-0.012278221 -0.0029159056 8.079134e-05 0.0009196167 -0.018078553 -0.0016184383 0.0041856174 -0.0014542706
-0.0061784377 -0.013861287 -0.013609411 0.014661282 0.0087418035 0.005417805 0.006099557 0.007005584
0.00069703005 -0.0052547497 -0.004017797 0.00712123 0.0060862997 -0.01225418 -0.0014443567 0.011382426
00000000: a101 453b eb6b a8ba 8571 5dbc bd5d 633c
00000010: 2433 2b3c 3c51 dabb e7cc 22bc a569 d53a
00000020: 8f64 ae3c 6b8c 243c f4cb 06bc a1b3 4bbc
00000030: 7307 67bc e3f1 783c 4b99 073b 24cd 2a3c
00000040: dabe 9abc 6d28 49bc 70ef aebb c0d4 8f3b
00000050: 804b afbb e498 c5ba 1395 73bc 399b bc3b
00000060: 37b0 00bc d519 873b 0b03 c03a ce94 b8ba
00000070: 37d5 5bbb 297f 723b 522a 8abc 4e1c b0bb
00000080: a7ec 0439 0a5f bebb 3063 61ba 749d b1bb
00000090: a17f 303c d47b 04b9 dd09 23bb 39ed 1e3c
000000a0: 74a3 f2bb ec4f 98bc 1f4e 11bb 6c13 553b
000000b0: 35b3 b73b bb2d 13bb 64cd 60bc c84a 943c
000000c0: a590 2cb9 9e3e 61bc 4b20 a0bc 332b 653c
000000d0: 39e9 ddba 81a6 c2ba 7b2c 72bb e48c 1b3c
000000e0: 918c 84bb 893c 6c3c 428f 29bc f4f7 76bb
000000f0: 2609 323b 381f 893c 8de3 b0bb 44eb e03a
00000100: 86f7 a7bc fa5b 01bd 52b3 813c 7b8e 49bc
00000110: ef9c 59bb d37a adb8 2212 2b3b 45f3 c2bb
00000120: 5065 83bb 10c1 a839 9d46 af3b ea50 93bb
00000130: ab5c ff3b 4942 62bc 9d7f a3bb bd02 b23b
00000140: d834 7cbc b4dc d6b9 3456 f7bb fec4 e13b
00000150: 1e54 99bb 74c1 1c3c ea82 5f3c d6d2 95bc
00000160: ae6e b83b 5456 97bc eebe 5ebc cf71 7fbc
00000170: 5ebf fcbb 43ab eb3b ce02 733b da58 083c
00000180: a65c f73b 7716 2d3c d471 67bb 1a1e 093c
00000190: 5c26 e13b f0b1 2abc e05f 3bbb 1b46 e3bb
000001a0: 1c14 a8bb 7826 47bc 00ab 153c d9be 0f3c
000001b0: 8788 bb3b c86c 003b ebe6 62bc 1859 bfbb
000001c0: 191b 00bc 9929 ea3c 3807 d33b b2f4 353c
000001d0: 738b 56bc c144 f63b c237 65bc ce54 c63a
000001e0: 864b c4bb a0d4 a13c a4ce 1dbc ce21 f9ba
000001f0: 8447 023c f67d 8e3b 2d31 49bb 1eed 853b
00000200: 53b1 ff3b a4f3 ca3a 90a9 243a f3c3 7b3b
00000210: cf50 0039 4eaf 79bc 02e5 e4bb 107f e2bb
00000220: fbf6 f2ba e1e6 7fb8 61db 133a 26c6 b9bb
00000230: 9c73 4dbb 2dba b8bb fe29 7bbc 102e af3c
00000240: c1c1 a1ba 672b aa3b 9ae1 8039 4cfe 953b
00000250: 4a16 babb 7541 73bb 372f 89bc cc55 febb
00000260: 2185 3a3c b0c7 adbb 7052 453a f78e 01bc
00000270: 791d 643c 34d8 3e3c 8d14 a63b 1876 143c
00000280: 5db4 33bc 49a4 a03b 3ee9 56b9 37f7 073c
00000290: dd95 8dbc f761 7e3b 650f 89bb bb6f 603c
000002a0: 5362 b9bb 1750 7b3b 47c8 343c 2d59 abba
000002b0: 334b 463c 2669 02bb 920f 533b 773f 043c
000002c0: de8a 66bc dbb8 99bc ae08 7a3b 2f20 69b9
000002d0: f2f1 f83a deb2 51bc b490 23bc 0b28 013d
000002e0: 9c5a 7c3b 3cec 94bb 4213 723b 8a38 78bb
000002f0: c277 39bc c716 9a3c 9469 34bc bb18 cf3b
00000300: 3e47 793b aed2 66bb 6fd3 ccbb feba 4ebc
00000310: 845e 27bb 00fb 0a3b 596a 393c e857 8eb9
00000320: b79d 8bba e4ac 633c 8973 7fba 2717 373c
00000330: 2221 6c3c 18c2 ca3b af5f 08bc 2b85 1a3c
00000340: 14e3 e6bb 2d2a 813c 906e d63c d302 cd3b
00000350: 1cbe d63c a6c5 d1ba f04c e9bb 72e6 e4ba
00000360: c99f c63b b85f 57bc 073d b0bb 2a7b bdbb
00000370: 8e70 a13b bda0 e73c 100e 3dbb 87e6 0ebc
00000380: fbae 15bc 4a8b 61bb a2a7 d0bb de2f f5bb
00000390: 9fd9 0c3c 5f5a 153c 193f 4fbc 7f11 1dbc
000003a0: 972a 49bc c718 3fbb 856e a938 6f12 713a
000003b0: 7919 94bc c721 d4ba 8127 893b 399d beba
000003c0: 7e74 cabb 741a 63bc 02fa 5ebc e035 703c
000003d0: c839 0f3c d887 b13b cbde c73b 198f e53b
000003e0: e5b8 363a 0930 acbb b9a7 83bb 3559 e93b
000003f0: 956f c73b c2c5 48bc 9250 bdba 5b7d 3a3c

bias f4 [6]
0.098997876 0.07204819 0.056965947 0.019668937 -0.055135243 -0.13440223
00000000: 66bf ca3d 008e 933d 2055 693d c020 a13c
00000010: 7ed5 61bd bda0 09be
