g_pkl/dqntarget_net.pkl (torch, 10783 bytes, 4 tensors)

weight f4 [50, 36]
-0.019201748 -0.021793189 0.01940677 -0.00087056786 0.0090820445 0.009880097 0.003377435 0.012298927
-0.018591074 0.015620581 0.008898654 0.0038511893 -0.017427465 0.029927466 -0.015417756 0.009986457
-0.009275981 0.014304056 -0.017285546 -0.0028518112 -0.00010552983 -0.014880535 0.006827653 0.011595009
0.014216087 -0.018521432 -0.023122227 -0.011544517 0.014428662 0.0016424845 -0.007043766 0.0031644492
-0.0074344813 0.0038691754 -0.014862716 0.01592973 -0.0027973836 -0.004902021 -0.00287531 0.0068287435
-0.0007474939 0.002635404 0.011139567 0.0019524149 -0.01305737 -0.0010582735 -0.005236861 0.005156176
0.0034255476 0.011255188 -0.006918537 -0.0041025504 -0.00522333 -0.006338101 -0.009334104 0.0061334674
0.007083569 0.0033913278 -0.009551515 -0.0017647003 0.0018674957 0.006590352 -0.003416644 0.0022201876
-0.0027214463 0.0067036357 0.0051742974 -0.0050147963 0.0073588383 -0.009634182 -0.0064720814 -0.0042126807
-0.0046018423 -0.0042246506 -0.0056249336 0.0060002375 0.004205175 0.005995969 0.0054430203 0.0040834025
0.0037805492 0.009645751 -0.01823255 -0.024324587 -0.020228667 0.0014081114 0.011525722 0.0040998375
0.0108339125 0.008272967 -0.005457135 -0.005514573 -0.00320427 -0.0018038795 0.0076271812 0.01001832
-0.0012583963 0.022924535 0.011157155 -0.008436598 0.006052085 0.005010693 -0.010893294 0.0070257625
-0.005260677 -0.00413648 -0.0056316876 0.01942975 -0.014385901 0.0028963052 0.018474482 0.008571058
-0.0025458816 0.007461065 -0.000558524 -0.0055868123 0.014250884 -0.0075976606 0.00081951823 -0.011551306
0.00093024754 0.005335902 0.0038562892 -0.009617045 0.0048193685 0.0041373502 0.016900087 0.020697406
-0.0035598194 0.013540687 -0.006142527 0.007840917 -0.0077438196 0.009919859 0.0025412152 0.0045591802
0.010590838 0.003745946 0.017935714 -0.017892754 0.0126299 -0.0051321653 -0.014457457 0.006726593
0.0007792089 -0.008535629 0.0075448826 0.01256879 0.0069640204 -0.0068416544 -0.0015287708 -0.014621757
-0.0043209954 0.0019346641 -0.002822037 -0.004163381 0.019670306 -0.007118455 0.011185194 -0.0013183103
-0.0059974194 -0.0030173576 -0.0027181904 -0.016947243 -0.0019035417 -0.0036177533 0.00093114865 0.009512217
-0.01036771 0.01006768 0.003260832 -0.01073272 0.0039376803 0.010312531 0.008898217 -0.0047258935
-0.009570909 0.010735394 0.019038696 -0.009181244 0.005038869 -0.014695501 -0.0087763835 0.0057583456
0.0008836047 0.0014188745 0.00036876628 -0.0053385813 0.009181689 0.009427182 0.0012720178 0.004493219
-0.008681692 0.0076706884 0.0065672183 -0.011353377 0.007280001 -0.0016332916 -0.022297155 -0.0076233284
0.0011405565 -0.006587751 0.001895966 -0.0042347577 -0.00070506096 -0.0135800345 -0.020754354 0.008387733
-0.0121032735 -0.0031974998 -0.0014159739 0.000412116 0.0060747885 -0.0023853849 0.0042098025 0.012126837
-0.006826409 -0.019429956 0.0045899064 -0.007647035 0.00013706778 0.009009419 -0.003565859 0.003525232
-0.0050429977 -0.007368099 0.011446152 0.002338681 -0.019344851 -0.0027605304 0.0011048375 0.007089226
0.011484832 0.023605492 0.008513435 -0.0045243935 0.004758774 -0.0007279542 0.009965926 -0.006509093
0.010180811 -0.0059344266 0.014827692 -0.0066138115 0.017048677 0.0063337726 -0.023899857 0.0012882386
0.011384217 0.011553062 0.004440433 0.015303396 -0.006677866 -0.0015832734 0.0026291152 -0.021104908
00000000: fc4c 9dbc a187 b2bc f2fa 9e3c d236 64ba
00000010: dbcc 143c 21e0 213c f557 5d3b 7081 493c
00000020: 4f4c 98bc 77ed 7f3c a9cb 113c 3c64 7c3b
00000030: 0bc4 8ebc 722a f53c c19a 7cbc 3d9e 233c
00000040: 49fa 17bc 8f5b 6a3c 6b9a 8dbc 74e5 3abb
00000050: e54f ddb8 7dcd 73bc 81ba df3b fef8 3d3c
00000060: 97ea 683c 42ba 97bc d36a bdbc 3725 3dbc
00000070: 3266 6c3c a248 d73a 64cf e6bb a662 4f3b
00000080: f39c f3bb fe91 7d3b c082 73bc 117f 823c
00000090: 4f54 37bb 22a1 a0bb b26f 3cbb a7c3 df3b
000000a0: 77f3 43ba beb6 2c3b bb82 363c 2ce8 ff3a
000000b0: 94ee 55bc c4b5 8aba f999 abbb 24f5 a83b
000000c0: 277f 603b ae67 383c e5b4 e2bb b06e 86bb
000000d0: 7828 abbb d8af cfbb 12ee 18bc 41fb c83b
000000e0: 491d e83b 0a41 5e3b f57d 1cbc 844d e7ba
000000f0: c2c6 f43a e1f3 d73b c6e9 5fbb 9180 113b
00000100: 4b5a 32bb 2caa db3b 278d a93b 2953 a4bb
00000110: 6922 f13b b0d8 1dbc c113 d4bb 870a 8abb
00000120: 0dcb 96bb f06e 8abb 5d51 b8bb a49d c43b
00000130: 91cb 893b d579 c43b 5d5b b23b 10ce 853b
00000140: 17c3 773b 3609 1e3c 6e5c 95bc 5b44 c7bc
00000150: 97b6 a5bc 6190 b83a 62d6 3c3c ee57 863b
00000160: b980 313c 578b 073c c4d1 b2bb 97b3 b4bb
00000170: bbfe 51bb 2770 ecba 6fed f93b e123 243c
00000180: c6f0 a4ba 3ccc bb3c 80cc 363c a839 0abc
00000190: 9250 c63b bd30 a43b c979 32bc 5e38 e63b
000001a0: c261 acbb 4f8b 87bb 058a b8bb 242b 9f3c
000001b0: d8b2 6bbc f0cf 3d3b cc57 973c 9f6d 0c3c
000001c0: ced8 26bb f37b f43b e969 12ba 9411 b7bb
000001d0: 8a7c 693c ccf5 f8bb f0d4 563a b041 3dbc
000001e0: dbdb 733a cad8 ae3b ccb9 7c3b cf90 1dbc
000001f0: cbeb 9d3b 9c92 873b 0d72 8a3c 9b8d a93c
00000200: dc4b 69bb c2d9 5d3c 4047 c9bb 3177 003c
00000210: debf fdbb e786 223c 848a 263b 2d65 953b
00000220: 3285 2d3c 8c7e 753b ebed 923c d393 92bc
00000230: a4ed 4e3c b92b a8bb f8de 6cbc c06a dc3b
00000240: d343 4c3a 06d9 0bbc 103b f73b 54ed 4d3c
00000250: 7032 e43b f52f e0bb 0961 c8ba 1890 6fbc
00000260: 2397 8dbb 8e94 fd3a edf1 38bb f96c 88bb
00000270: 9f23 a13c ee41 e9bb 1b42 373c 27cb acba
00000280: 0086 c4bb dcbe 45bb ab23 32bb f2d4 8abc
00000290: 4380 f9ba d417 6dbb 5418 743a 21d9 1b3c
000002a0: 54dd 29bc e9f2 243c afb3 553b 4ad8 2fbc
000002b0: a807 813b e4f5 283c d4c9 113c abdb 9abb
000002c0: 4dcf 1cbc 82e3 2f3c 0af7 9b3c ee6c 16bc
000002d0: 191d a53b 66c5 70bc d2ca 0fbc 81b0 bc3b
000002e0: b5a1 673a 87f9 b93a f956 c139 44ef aebb
000002f0: cb6e 163c 7874 1a3c d6b9 a63a da3b 933b
00000300: a83d 0ebc 665a fb3b d231 d73b 8403 3abc
00000310: 138d ee3b 2c14 d6ba 86a8 b6bc 1dcd f9bb
00000320: ba7e 953a 10de d7bb 1082 f83a b9c3 8abb
00000330: d7d3 38ba cb7e 5ebc 0905 aabc b46c 093c
00000340: cf4c 46bc 258d 51bb 3398 b9ba 4611 d839
00000350: 050f c73b 1e54 1cbb 62f2 893b a4af 463c
00000360: 12b0 dfbb 922b 9fbc ed66 963b fb93 fabb
00000370: dab9 0f39 3e9c 133c 30b1 69bb 9407 673b
00000380: bb3f a5bb 1870 f1bb a488 3b3c 8e44 193b
00000390: 1879 9ebc 04ea 34bb 32d0 903a bd4c e83b
000003a0: e02a 3c3c 4e60 c13c ef7b 0b3c 5d41 94bb
000003b0: 7def 9b3b 2ed4 3eba 2048 233c 3b4a d5bb
000003c0: 6bcd 263c 9475 c2bb d9ef 723c acb8 d8bb
000003d0: aba9 8b3c 898b cf3b a2c9 c3bc 1dda a83a
000003e0: de84 3a3c 0e49 3d3c 0d81 913b 18bb 7a3c
000003f0: 00d2 dabb d785 cfba 3c4d 2c3b 33e4 acbc

bias f4 [50]
-0.14986311 -0.12575291 0.028034866 -0.032839835 -0.13771981 -0.14420746 -0.039720654 0.15938632
-0.026707605 -0.15311897 -0.15713517 0.12813403 -0.028144553 -0.07621603 -0.057460964 0.05854033
0.029346153 -0.048171163 -0.1552438 -0.065195665 0.027969375 0.019522175 -0.06407404 -0.12054084
-0.1477989 -0.15240453 -0.106816456 0.031162024 -0.06724918 -0.04285769 -0.07541289 0.06649168
0.012261227 0.056328043 0.11266418 -0.037387133 0.057975933 -0.119878314 0.12388249 0.05769451
-0.15939164 0.026631072 0.0497116 -0.03597921 0.0374552 0.13606079 -0.0017231703 0.112431034
-0.0821295 -0.16638774
00000000: b775 19be 5fc5 00be 60a9 e53c 1083 06bd
00000010: 6c06 0dbe 1fab 13be 20b2 22bd 2b36 233e
00000020: e8c9 dabc 38cb 1cbe 0be8 20be 9135 033e
00000030: 688f e6bc 2617 9cbd 305c 6bbd fcc7 6f3d
00000040: 5867 f03c 204f 45bd 3bf8 1ebe 4e85 85bd
00000050: 0820 e53c f8ec 9f3c 4039 83bd 1ede f6bd
00000060: 9858 17be ef0f 1cbe 96c2 dabd 8047 ff3c
00000070: f0b9 89bd 8c8b 2fbd 1372 9abd ca2c 883d
00000080: 50e3 483c 3cb8 663d 7abc e63d 4023 19bd
00000090: 2c78 6d3d c382 f5bd 1ab6 fd3d 1451 6c3d
000000a0: 9037 23be 6829 da3c 649e 4b3d f05e 13bd
000000b0: a06a 193d 8553 0b3e 00dc e1ba 3e42 e63d
000000c0: 8333 a8bd 8c61 2abe

weight f4 [6, 50]
0.00043780377 0.021426491 -0.013280175 0.015213073 0.0063124066 -0.01961617 -0.0027079838 0.038034193
-0.004743646 0.0018228054 -0.013499508 0.0054434463 -0.019966524 0.0073426473 -0.012047932 -0.005487634
0.016740466 0.002435374 -0.0073316693 -0.008655901 -0.0075430847 0.0030780002 -0.02462073 -0.017011663
-0.006038798 -0.004336029 -0.011249888 0.01852677 0.019592702 -0.0056441007 0.0014201824 0.004546211
0.00855587 0.02164423 -0.0026912778 0.007405392 0.009662175 -0.00794248 -0.006654916 -0.0020547279
-0.0019256778 0.0014875256 0.00774922 0.011801137 0.011600466 0.005071974 0.015281561 0.0018130569
0.008025775 -0.0036492115 -0.0026093503 0.00053858146 0.006542986 0.00985689 0.009710153 -0.0062667066
-0.007925685 -0.009944415 -0.008555391 0.009804976 0.010319024 0.008616009 -0.004914384 -0.009656834
-0.0067753964 -0.016581945 0.0079036495 0.0067965295 0.006307289 -0.008734009 -0.0050249505 0.0026860507
-0.0033719372 -0.007116748 0.0046418286 0.028547784 0.006254116 -0.0034946133 0.0020895908 -0.0028931417
-0.018212166 0.010233867 -0.0017926696 0.014458176 -0.0014588055 0.0061933026 0.01208245 0.0045566107
0.0068891454 -0.0036831005 0.019554226 0.0031861772 -0.006139988 0.0009464473 0.0027015288 0.0034410427
-0.024540858 0.010046224 -0.0034940806 -0.0017045466 -0.00388114 0.0020906595 0.002389624 -0.014326735
0.015807047 -0.0083335955 -0.0072353 -0.003806637 -0.006613199 -0.0067440486 -0.0036211303 -0.017937532
-0.0049801897 -0.011627164 0.013927799 -0.0022412108 0.0010902131 -0.009751771 0.017165223 0.006913383
-0.0010805745 -0.01253826 -0.00036517295 -0.002172409 -0.010878517 0.0039697755 0.014821316 -0.0031829372
-0.0041029532 -0.0018319259 -0.022465078 0.02810057 -0.0032632353 -0.00994831 -0.010251195 -0.0042360453
-0.019961674 0.009603963 -0.0063404785 -0.004794951 -0.0054661185 -0.00600586 -0.012171172 -0.016525514
0.004292742 0.007528253 -0.0046187653 0.03169562 -0.012260326 0.0003933034 -0.0036061136 -0.010030267
-0.011593113 0.0010481357 0.00031054643 0.008266711 -0.010526504 -0.0070853042 0.008537298 0.0071943747
-0.003832426 -0.012016651 -0.0021993772 -0.008388993 -0.012488881 -0.00020075607 -0.006670432 -0.0038819686
-0.0014903442 0.00801558 0.0110083325 0.0026380913 -0.002151989 0.0071951305 -0.0076858215 -0.005769635
-0.00541776 -0.013133143 -0.01757313 0.008796926 -0.009960726 0.00786703 0.008378577 0.0028748151
0.006628444 0.009871177 -0.01817477 0.006481769 0.013778266 -0.005399172 0.008081277 -0.004522894
-0.010311464 -0.0018630172 4.2568066e-05 -0.004891734 0.015510404 -0.004522327 -0.001982917 -0.0061516277
0.0008444745 0.017781796 -0.0019230637 -0.011381291 -0.006743796 0.00545555 0.006862223 -0.022816999
-0.008358525 0.010245855 0.005280901 0.0020159537 0.0041083144 -0.00011104878 -0.009181058 -0.00021267397
0.0052858233 0.01047317 0.0057295198 0.011263816 0.0035177937 0.0010546665 0.003027891 0.009770404
-0.015330844 -0.0032216113 0.006164107 -0.016449219 0.0054882485 0.0034327446 0.00943703 -0.0031501544
0.0022337136 0.0021493966 -0.0032094284 0.008118776 1.8969247e-05 0.009250779 -0.01165023 -0.012400774
-0.0011070468 0.0070550237 0.0010771663 -0.009282384 0.011615765 0.008984641 0.0132118855 -0.00072434783
-0.0071097207 0.0066217887 -0.010806965 0.009206855 0.003212642 0.009164015 0.009895477 -0.0011892815
00000000: 0789 e539 9c86 af3c 1795 59bc 4140 793c
00000010: 4ed8 ce3b 17b2 a0bc 6e78 31bb bec9 1b3d
00000020: 9670 9bbb 33eb ee3a 0a2d 5dbc f05e b23b
00000030: d690 a3bc 979a f03b b064 45bc 9cd1 b3bb
00000040: 4d23 893c cc9a 1f3b 803e f0bb 7bd1 0dbc
00000050: fb2b f7bb 46b8 493b 6ab1 c9bc 0b5c 8bbc
00000060: 1ce1 c5bb 3f15 8ebb 7351 38bc 74c5 973c
00000070: e080 a03c 26f2 b8bb 6a25 ba3a 62f8 943b
00000080: eb2d 0c3c 3d4f b13c 2660 30bb eea8 f23b
00000090: 194e 1e3c 2d21 02bc 7b11 dabb 9da8 06bb
000000a0: 0667 fcba 14f9 c23a 2bed fd3b 8e59 413c
000000b0: e20f 3e3c cd32 a63b 835f 7a3c 18a4 ed3a
000000c0: 8a7e 033c 9c27 6fbb a201 2bbb 972f 0d3a
000000d0: 8b66 d63b cb7e 213c 5517 1f3c f258 cdbb
000000e0: bbda 01bc e6ed 22bc e92b 0cbc 0da5 203c
000000f0: 2011 293c 292a 0d3c d708 a1bb b337 1ebc
00000100: 2504 debb dcd6 87bc 4f7e 013c 6cb5 de3b
00000110: 60ad ce3b 1719 0fbc 57a8 a4bb 7408 303b
00000120: b8fb 5cbb 9c33 e9bb 7b1a 983b 0bdd e93c
00000130: 54ef cc3b e205 65bb 84f1 083b dd9a 3dbb
00000140: ae31 95bc f3ab 273c 03f8 eaba fce1 6c3c
00000150: 6435 bfba 30f1 ca3b 78f5 453c 9f4f 953b
00000160: 57be e13b 2c60 71bb 2f30 a03c 2fcf 503b
00000170: f431 c9bb 011b 783a 220c 313b 1e83 613b
00000180: e909 c9bc eb98 243c f2fc 64bb 186b dfba
00000190: b95a 7ebb 7203 093b 3d9b 1c3b afba 6abc
000001a0: c87d 813c a289 08bc 1816 edbb c578 79bb
000001b0: 89b3 d8bb 2efd dcbb 7c50 6dbb bbf1 92bc
000001c0: dc30 a3bb dc7f 3ebc 6c31 643c 47e1 12bb
000001d0: 7be5 8e3a e4c5 1fbc 159e 8c3c a989 e23b
000001e0: 10a2 8dba 466d 4dbc af74 bfb9 fa5e 0ebb
000001f0: cf3b 32bc e414 823b 1bd5 723c d398 50bb
00000200: 1172 86bb 3c1d f0ba af08 b8bc 2b33 e63c
00000210: 01dc 55bb 3dfe 22bc a1f4 27bc 86ce 8abb
00000220: aa86 a3bc f159 1d3c cac3 cfbb f71e 9dbb
00000230: 201d b3bb cecc c4bb 9869 47bc 8460 87bc
00000240: 21aa 8c3b 90af f63b 0359 97bb 44d3 013d
00000250: 89df 48bc 4a34 ce39 8c54 6cbb fd55 24bc
00000260: 0af1 3dbc 9961 893a d6d0 a239 1971 073c
00000270: 5c77 2cbc d72b e8bb 06e0 0b3c cabe eb3b
00000280: 7029 7bbb 7de1 44bc 6d23 10bb fd71 09bc
00000290: 2a9e 4cbc 0c82 52b9 a493 dabb a068 7ebb
000002a0: a757 c3ba c753 033c 4b5c 343c d4e3 2c3b
000002b0: 6208 0dbb 21c5 eb3b 58d9 fbbb 350f bdbb
000002c0: 7787 b1bb 652c 57bc 86f5 8fbc fb20 103c
000002d0: 5032 23bc b7e4 003c 4d46 093c 6567 3c3b
000002e0: 6b33 d93b b8ba 213c 41e3 94bc 0565 d43b
000002f0: 3cbe 613c 8aeb b0bb 5567 043c c934 94bb
00000300: 6af1 28bc 7c30 f4ba 1d8b 3238 d74a a0bb
00000310: 591f 7e3c 0730 94bb d4f3 01bb 9893 c9bb
00000320: b95f 5d3a 21ab 913c 4f0f fcba 9878 3abc
00000330: 10fb dcbb 78c4 b23b 80dc e03b b7ea babc
00000340: 32f2 08bc 3bde 273c 690b ad3b 171e 043b
00000350: 0a9f 863b dce2 e8b8 266c 16bc 3c01 5fb9
00000360: b334 ad3b a997 2b3c b2be bb3b de8b 383c
00000370: c98a 663b bc3c 8a3a 956f 463b 0b14 203c
00000380: 382e 7bbc ab21 53bb 47fc c93b 83c0 86bc
00000390: c4d6 b33b e6f7 603b c69d 1a3c d272 4ebb
000003a0: 7f63 123b e4dc 0c3b 4655 52bb 9d04 053c
000003b0: 2620 9f37 9490 173c 9be0 3ebc 9e2c 4bbc
000003c0: 541a 91ba d42d e73b b42f 8d3a 2415 18bc
000003d0: 0d50 3e3c 5134 133c aa76 583c 29e2 3dba
000003e0: a9f8 e8bb 97fb d83b b20f 31bc 59d8 163c
000003f0: 308b 523b aa24 163c a420 223c aae1 9bba

bias f4 [6]
0.13266419 0.018216982 0.07030955 -0.046876974 0.026480883 0.108173385
00000000: 1fd9 073e c83b 953c 74fe 8f3d 1202 40bd
00000010: 70ee d83c 028a dd3d
